project/duration_app/pkl/model_weights.pt (torch, 360068 bytes, 6 tensors)

lstm.weight_ih_l0 f4 [512, 44]
0	0x3e19b4b6	0.15010342
1	0x3edff38c	0.437405
2	0xbba78659	-0.005112451
3	0x3e80670c	0.2507862
4	0xbe0b3cab	-0.13597362
5	0x3c005e37	0.007834963
6	0x3d95c6eb	0.07313331
7	0xbcf288e3	-0.029606288
8	0xbe8ce1d3	-0.2751604
9	0xbdaff04b	-0.08590754
10	0xbe6eb394	-0.23310691
11	0xbd9a9305	-0.07547573
12	0xbcb67916	-0.022274535
13	0x3d24ef8b	0.04026751
14	0x3e1cb759	0.15304317
15	0x3e3a18ec	0.1817357
16	0xbdde27de	-0.10847448
17	0x3eae6676	0.34062546
18	0xbd2998ff	-0.041405674
19	0x3e1c8e4a	0.15288654
20	0x3e246790	0.16055131
21	0xbf1c2bc8	-0.61004305
22	0xbc8ca65d	-0.017169172
23	0x3d96d7f5	0.07365409
24	0xbe74a850	-0.23892331
25	0x3eb1c98d	0.34724084
26	0x3d31902d	0.043350387
27	0x3f0a2bc2	0.5397302
28	0xbe7701b7	-0.24121748
29	0xbca513ae	-0.020150986
30	0xbf0697d5	-0.5257543
31	0x3f0a58d3	0.54041785
32	0xbeb5aaa9	-0.35481766
33	0x3e0a9422	0.1353307
34	0xbe790e9a	-0.24321976
35	0xbe1e574c	-0.15462989
36	0xbe6c5532	-0.23079374
37	0x3d49ebb7	0.04929706
38	0xbe83e053	-0.25757083
39	0xbdbac5fe	-0.09119795
40	0xbe309d36	-0.17247471
41	0xbf7fee7d	-0.9997328
42	0xbf0ac0c2	-0.54200375
43	0x3f305eff	0.6889495
44	0xbf000215	-0.50003177
45	0xbf025569	-0.50911576
46	0xbd074ed5	-0.033034164
47	0x3e88f1ea	0.26747066
48	0x3d96b110	0.07357991
49	0x3df3f5d7	0.119121246
50	0xbddcac06	-0.10774998
51	0xbf111de8	-0.5668626
52	0xbe77a76b	-0.24184959
53	0xbea2190f	-0.31659743
54	0xbe71fa6b	-0.23630683
55	0xbe73ded0	-0.23815465
56	0xbd3af5e5	-0.04564466
57	0x3e636666	0.2220703
58	0xbdd62d89	-0.10457904
59	0xbe0da69b	-0.13833086
60	0xbd9aafdf	-0.07553076
61	0xbe63b721	-0.22237827
62	0x3caf1a1e	0.021374758
63	0xbde55779	-0.11198325
64	0xbe2b218f	-0.1671202
65	0xbf00d46f	-0.5032415
66	0xbdac4d7e	-0.08413218
67	0x3cf0d13b	0.029396644
68	0xbd997a9a	-0.074940875
69	0x3e1c069d	0.15236898
70	0xbcba30f8	-0.022728428
71	0xbf1e20b6	-0.6176866
72	0x3be5a3b0	0.0070080385
73	0xbce89e06	-0.028395664
74	0x3e08886f	0.13333295
75	0x3ea8e347	0.329859
76	0xbef902e5	-0.4863502
77	0xbec635fa	-0.38713056
78	0xbec10751	-0.37700894
79	0xbf10c35a	-0.5654808
80	0xbf0b28b4	-0.54358983
81	0xbe9b0a2e	-0.30281204
82	0xbea90dbd	-0.33018294
83	0xbef25067	-0.47326967
84	0xbcdd2c36	-0.02699862
85	0x3c6fdb2f	0.01463966
86	0xbe98edbe	-0.29868883
87	0x3ee6e8a1	0.45099357
88	0x3dc31618	0.095256984
89	0xbe526e6c	-0.20549935
90	0xbd57be2e	-0.052671604
91	0x3eb9aecb	0.3626617
92	0xbdaea41c	-0.08527395
93	0xbc77ebcd	-0.015131903
94	0x3eb97a60	0.36226177
95	0xbf1763b6	-0.5913652
96	0x3f3829c1	0.7193871
97	0xbe7bd7b1	-0.24593998
98	0xbe44af9c	-0.19207615
99	0xbd934f0e	-0.07192813
100	0xbe143936	-0.14474949
101	0x3bf4357d	0.0074526654
102	0x3e8d80f3	0.27637443
103	0x3dd515b1	0.10404528
104	0x3e7a295c	0.2442984
105	0x3d4f2039	0.05056784
106	0xbeafc5df	-0.3433065
107	0xbea5b3a6	-0.32363623
108	0xbdb45dee	-0.08806978
109	0x3f33a71f	0.7017688
110	0xbe42cf74	-0.1902445
111	0x3e38d7b7	0.18051039
112	0x3d342f0a	0.043990172
113	0x3ea7996f	0.32734248
114	0x3c86ffc1	0.016479375
115	0xbed41539	-0.41422442
116	0x3d20dfaf	0.03927582
117	0x3ea011a8	0.3126347
118	0x3f6f041a	0.93365633
119	0xbecc42ca	-0.39894706
120	0xbe85cbf2	-0.2613216
121	0xbdd3298f	-0.10310661
122	0x3e509fce	0.2037346
123	0x3e38edab	0.18059413
124	0xbe8dec5c	-0.2771939
125	0xbdeea553	-0.11652627
126	0x3ea152d3	0.31508502
127	0x3e60b595	0.21944268
128	0x3e771e06	0.24132547
129	0x3e4a5aa5	0.1976114
130	0xbeba5ecf	-0.36400458
131	0xbd5b36c7	-0.053519037
132	0x3ee20b2e	0.44149154
133	0xbeb956c9	-0.36199024
134	0xbe7475f6	-0.23873124
135	0x3e709862	0.2349563
136	0xbecfcf48	-0.4058783
137	0x3e14a1c0	0.14514828
138	0x3ef9d025	0.48791614
139	0xbe57fa62	-0.21091607
140	0xbe865b15	-0.26241365
141	0xbe3146c0	-0.17312145
142	0xbd7af795	-0.06127127
143	0xbe303b04	-0.17210013
144	0xbea77a09	-0.32710293
145	0xbe8f37c4	-0.27972233
146	0xbe67e2f6	-0.22645172
147	0x3c35cfa3	0.011096868
148	0x3ef3199c	0.47480476
149	0xbeac4587	-0.33646795
150	0xbf3f4304	-0.7471163
151	0xbea5c8f5	-0.3237988
152	0xbdae235d	-0.08502839
153	0x3b9f3b67	0.0048593762
154	0xbe4727b0	-0.19448733
155	0xbee1746a	-0.4403413
156	0xbc90f074	-0.017692782
157	0x3d495f86	0.049163364
158	0x3d863111	0.065523274
159	0xbeec3a06	-0.46138018
160	0x3f085d87	0.5326771
161	0xbd36e222	-0.04464925
162	0xbd66ae8e	-0.056318812
163	0x3ede3095	0.4339644
164	0xbe08ad60	-0.13347387
165	0x3ec80e09	0.39073208
166	0xbec0ace3	-0.37631902
167	0xbea873a3	-0.32900724
168	0xbe2d1a34	-0.16904527
169	0x3ec789e3	0.38972387
170	0xbe94cd53	-0.290629
171	0xbe9b5af4	-0.3034283
172	0x3e736e81	0.23772623
173	0xbe2cd7c5	-0.16879185
174	0xbe8932d4	-0.2679659
175	0xbd8b1c27	-0.06792479
176	0xba8e3bac	-0.0010851524
177	0x3ef12058	0.4709499
178	0x3ed53bb0	0.416471
179	0x3ce9ed25	0.028555462
180	0x3d831ee7	0.064023785
181	0x3cdcc8b5	0.026951173
182	0x3d325236	0.043535434
183	0xbe968f3f	-0.29406163
184	0xbdada469	-0.084786244
185	0xbe3f6059	-0.18689097
186	0xbe7755e1	-0.24153854
187	0xbea7fa65	-0.32808223
188	0xbea3dc48	-0.32004
189	0xbe0f69d9	-0.14005221
190	0x3cf7f0fe	0.030266281
191	0xbe3702bd	-0.17872138
192	0x3d42ae78	0.047529668
193	0xbf268d45	-0.6505931
194	0xbe981fe6	-0.29711837
195	0xbdef2c80	-0.116784096
196	0x3bed56ad	0.0072429986
197	0x3d0bfaec	0.034174845
198	0xbe9e11b3	-0.30872878
199	0xbe5d4a5f	-0.21610402
200	0x3ef67f45	0.48143974
201	0x3e49091b	0.1963238
202	0xbb071be4	-0.002061599
203	0xbe457c76	-0.1928576
204	0x3ee3bb99	0.44479063
205	0x3c0b8322	0.008515151
206	0xbed41c57	-0.41427872
207	0x3eddc022	0.43310648
208	0xbe525f61	-0.20544197
209	0x3c8773a2	0.01653463
210	0x3e8453a3	0.2584506
211	0xbd862023	-0.06549098
212	0xbdd5baff	-0.10436057
213	0xbd61ccfb	-0.055127125
214	0x3eaac7ea	0.33355647
215	0xbd471d8e	-0.04861217
216	0x3e879bf4	0.2648617
217	0x3cd71b07	0.026258005
218	0x3ee18ba3	0.44051847
219	0xbee8304a	-0.45349342
220	0x3f371825	0.71521217
221	0x3efbfede	0.49217886
222	0x3f1af42f	0.60528845
223	0x3e0dda15	0.13852723
224	0xbe578030	-0.21044993
225	0x3d9bb4fd	0.0760288
226	0xbf0c500a	-0.5480963
227	0xbebf0486	-0.3730814
228	0x3e33b0fc	0.17547983
229	0xbe814fb5	-0.25256124
230	0xbea2c286	-0.31789035
231	0xbe19ac60	-0.15007162
232	0x3cafea45	0.021474013
233	0x3e646557	0.22304283
234	0xbd425c2b	-0.04745118
235	0x3d061f66	0.032744788
236	0xbe1bab13	-0.15201978
237	0xbefced8d	-0.49399987
238	0x3db13267	0.086521916
239	0xbd37d80d	-0.044883776
240	0x3e1aa5be	0.15102288
241	0xbe00d2a6	-0.12580356
242	0xbda852fa	-0.082189515
243	0x3eae42a5	0.3403522
244	0x3e9e0efd	0.3087081
245	0x3e9b14c7	0.3028929
246	0xbc9d9ef0	-0.019240826
247	0xbe9ef021	-0.3104258
248	0x3e3dba4b	0.18528096
249	0xbdaade74	-0.08343211
250	0xbdab7eba	-0.083737805
251	0x3ebbd341	0.3668461
252	0x3db8a77d	0.09016321
253	0xbee75044	-0.45178425
254	0x3c1e92f8	0.009678595
255	0x3de282fe	0.11060141

lstm.weight_hh_l0 f4 [512, 128]
0	0x3ca28275	0.019837597
1	0xbce0fdde	-0.027464803
2	0x3c00deed	0.00786565
3	0x3bc28578	0.005936321
4	0xbc845a42	-0.01615632
5	0x3c74407d	0.014907953
6	0xbb8ccd44	-0.0042969305
7	0x3bbf3213	0.0058348267
8	0x3b486814	0.0030579614
9	0x3c152ec5	0.009105389
10	0xb913cb5c	-0.0001409477
11	0xbb3e606a	-0.0029049166
12	0xb8b312c8	-8.5388834e-05
13	0xb94e8fac	-0.00019699213
14	0xbbc9c571	-0.00615757
15	0x3c8fc8e3	0.017551845
16	0x3c9b85ad	0.01898464
17	0xbc148d4d	-0.009066892
18	0x3c92f48c	0.017938875
19	0x3cc4b7b4	0.024013378
20	0x3c026b06	0.007960087
21	0x3acab93b	0.001546658
22	0xbc59a76d	-0.013284546
23	0x3be3649e	0.0069394847
24	0x3c0baafb	0.008524652
25	0x3c1ce050	0.009574965
26	0xbc25149a	-0.010075713
27	0x3c4770b3	0.012172866
28	0xbb28bcdb	-0.0025747332
29	0x3c661bf8	0.014044754
30	0x3bf84a1b	0.0075771934
31	0xbc141872	-0.009039031
32	0xbb1d01b3	-0.0023957312
33	0x3a3cc13b	0.00072004244
34	0x38d90b8c	0.00010349517
35	0x3d13fef6	0.03613182
36	0x3b1c3ff3	0.0023841828
37	0x3ad18523	0.0015985112
38	0xbc5730d0	-0.013134196
39	0x3b8b98d4	0.004260162
40	0xbc4b73d4	-0.012417752
41	0xbc7c3fec	-0.0153961
42	0x3b8a1938	0.004214432
43	0xbbecba57	-0.007224362
44	0xbc88f784	-0.016719587
45	0x3bb414f6	0.005495663
46	0xbc1dee0d	-0.009639275
47	0x3be30f7b	0.0069293357
48	0x3c121329	0.008915701
49	0xb942e1f5	-0.00018585457
50	0xbced6a58	-0.028981373
51	0x3aaf9b12	0.0013397655
52	0x3cf58df4	0.029974915
53	0x3c52d95a	0.012869203
54	0xbcf4898f	-0.02985075
55	0xbba80f03	-0.0051287427
56	0x3c92b0d8	0.017906591
57	0xbaead93c	-0.0017917524
58	0xbaa4ecb0	-0.0012582745
59	0xbbd674e6	-0.006544697
60	0xbc69e53b	-0.014275844
61	0xbab7b70d	-0.0014016345
62	0x3a3a1820	0.0007098932
63	0x3c2c2264	0.010506246
64	0x3c8ec3c4	0.017427333
65	0xbbcb9823	-0.0062132045
66	0xbc8a35ff	-0.01687145
67	0xba8abb1d	-0.0010584329
68	0xbadc6252	-0.001681397
69	0x3bc0435c	0.005867405
70	0x3b3d8fa1	0.002892472
71	0x3a8a0245	0.0010529241
72	0xbc81cc2f	-0.015844433
73	0x3bd5faa9	0.006530125
74	0xbc96afcc	-0.018394373
75	0xbb8324e7	-0.004002202
76	0x3c8dcb4f	0.01730886
77	0xbb7984b7	-0.003807349
78	0xbc2e2d12	-0.010630863
79	0x3c64a2ee	0.013954861
80	0x3a54eb32	0.0008122205
81	0xbbb461b9	-0.0055048135
82	0xbbd9c2c3	-0.006645532
83	0xbba952c8	-0.005167339
84	0x3ba31642	0.0049770186
85	0x3b4d91c5	0.0031367403
86	0xbb4c53ab	-0.00311778
87	0x3b9f181b	0.0048551685
88	0xbc5b45ae	-0.013383312
89	0xbbd7ba27	-0.0065834704
90	0x3c139901	0.009008647
91	0xbc9ce62b	-0.019152721
92	0xbba0834e	-0.0048984652
93	0x3c8658f8	0.016399845
94	0x3b92e435	0.004482771
95	0x3c7a6eff	0.015285253
96	0x3cdddaf7	0.02708195
97	0xbbcdd51b	-0.0062815077
98	0xbc628bf0	-0.013827309
99	0x3c1b12ab	0.0094649
100	0xbbb6e2c1	-0.0055812304
101	0xbc40d126	-0.011768615
102	0xbc4c926e	-0.012486083
103	0x3b6cb4ed	0.0036118582
104	0xbb0977a6	-0.0020975857
105	0xbcaf64e3	-0.021410411
106	0xba73ee66	-0.00093052385
107	0x3b483921	0.003055163
108	0xbb3b8987	-0.0028615908
109	0x3c0bcb02	0.008532288
110	0x3c3bd8a5	0.011465226
111	0xbbbbd1ff	-0.0057318206
112	0x3b1ac2f7	0.0023614743
113	0xba758e30	-0.0009367196
114	0x3b0ae572	0.002119389
115	0x3c5c5bea	0.013449648
116	0xbb5c7a40	-0.0033642203
117	0x3c0ab1be	0.008465229
118	0x3b542293	0.003236924
119	0xbb915cda	-0.0044361176
120	0xbae15df9	-0.0017194144
121	0x3ac785c5	0.0015222362
122	0xbb65ba35	-0.0035053615
123	0xbc0f66e8	-0.008752562
124	0x3b8f6a08	0.0043766536
125	0xbb1c3c88	-0.002383979
126	0x3c1516c7	0.009099669
127	0x3c66c466	0.014084911
128	0xbbc5f71a	-0.0060414197
129	0xbce8312b	-0.028343758
130	0x3c14f34f	0.009091212
131	0xbc2465a0	-0.010033995
132	0xba60a4fc	-0.00085695065
133	0xbb4fafd2	-0.003169049
134	0xbb302c66	-0.0026881932
135	0xbc0a2dfb	-0.008433814
136	0xbb4e7f7e	-0.0031509097
137	0x3c9fc500	0.019503117
138	0xbc17bc45	-0.009261196
139	0x3c47f6a7	0.012204803
140	0x3adfa133	0.0017061591
141	0xba254cf0	-0.0006305715
142	0x3a98e540	0.0011665002
143	0x3b89ec1c	0.0042090546
144	0xba73491e	-0.00092806097
145	0xbb98a116	-0.004657875
146	0xbc82e14d	-0.015976572
147	0x3caf083a	0.021366227
148	0x3ab55b71	0.0013836456
149	0xbbbc644a	-0.00574926
150	0x3c177dab	0.00924627
151	0x3bf34ae8	0.007424701
152	0x3bf7d029	0.0075626564
153	0xbc257e1d	-0.0101008685
154	0xbc0deed4	-0.008662898
155	0xbbb308e1	-0.005463705
156	0x3ba817ea	0.005129804
157	0xbca38bba	-0.019964088
158	0xbc3d74d9	-0.011563503
159	0x3c181c22	0.009284051
160	0x3b908664	0.004410552
161	0x3ae8a935	0.0017750623
162	0xbbb25ef5	-0.0054434487
163	0x3bf1bff5	0.0073776194
164	0x3be57b47	0.007003221
165	0xbc01c96f	-0.007921561
166	0xbbe20d7d	-0.0068985806
167	0xbbad058d	-0.0052802027
168	0xbc0aa1b6	-0.008461406
169	0xbb7bdb76	-0.003843037
170	0xb896e305	-7.194843e-05
171	0xbc39d087	-0.011341221
172	0x3bcccdb1	0.0062501063
173	0xb9bfaec8	-0.0003656058
174	0xbac2ac0a	-0.0014852297
175	0xbbf7f554	-0.007567087
176	0x3c04087c	0.008058663
177	0xbb7168d4	-0.0036836164
178	0xbc7b27ed	-0.015329343
179	0x3b59e24c	0.0033246456
180	0x39daaf23	0.00041710687
181	0xbb153f21	-0.0022773223
182	0x3cd367e9	0.025806384
183	0x3bbb4a4a	0.005715643
184	0xba32f293	-0.00068263075
185	0x3c2d1b21	0.01056555
186	0x3b8c4a0a	0.004281287
187	0x3b63ca08	0.0034757871
188	0xbc2c2322	-0.010506423
189	0x3b4d05af	0.0031283905
190	0xbc56f832	-0.013120698
191	0x3c279e90	0.010230675
192	0x3c482970	0.012216911
193	0xbb8a3512	-0.0042177523
194	0x3a373229	0.00069883704
195	0x3955adb2	0.0002037797
196	0xbaa79ca7	-0.0012787775
197	0x3c689ece	0.014198018
198	0x3c45bd36	0.012069037
199	0xbbca4f1a	-0.0061739804
200	0xbb45417d	-0.0030098849
201	0xbafd4516	-0.0019322957
202	0xbbbeb45e	-0.0058198413
203	0xbb9cc17a	-0.0047838064
204	0x3bb913bc	0.0056481045
205	0xbb931b98	-0.0044893734
206	0x3cc0c17b	0.023529759
207	0xbc1fa0e0	-0.009742945
208	0xbb18a97d	-0.0023294382
209	0xbbd64d53	-0.0065399795
210	0xbbe72ff8	-0.007055279
211	0xbc37b9c4	-0.011213724
212	0xbc1d0e27	-0.009585894
213	0xbc2de37d	-0.010613319
214	0xbb1ccab2	-0.0023924527
215	0xbc0e4c52	-0.008685188
216	0x3c472b94	0.012156386
217	0xbbfdae01	-0.00774169
218	0x3c6c7890	0.014433041
219	0xbaf8e2ef	-0.001898853
220	0x3bc52771	0.0060166647
221	0x3c8b1ae2	0.016980592
222	0xbc23fb26	-0.010008609
223	0x3c4a7db4	0.0123590715
224	0x3c612c6d	0.013743502
225	0x3c5207b1	0.012819217
226	0xba8197c4	-0.0009887149
227	0xbc1a9d3f	-0.009436904
228	0x3bbce440	0.005764514
229	0xbb8bb1de	-0.004263147
230	0xbaed1fc7	-0.0018091135
231	0xbc5105c0	-0.012757719
232	0xba632deb	-0.0008666205
233	0xbb16f3bf	-0.0023033468
234	0x3bc92045	0.00613788
235	0x3c584127	0.013199127
236	0xbb21939c	-0.0024654632
237	0x3babe54b	0.0052458397
238	0x3b6a2ee4	0.0035733515
239	0xba1b5fcc	-0.00059270556
240	0xbc8115b3	-0.015757417
241	0xbc3c4051	-0.011489944
242	0x3afe5104	0.0019402807
243	0xbba9d5d5	-0.0051829615
244	0x3b8610b7	0.004091348
245	0x3c08587e	0.008321879
246	0xbb1f8a6d	-0.0024343983
247	0xbb64f4b8	-0.0034935903
248	0xbbabfa10	-0.0052483156
249	0xbbdc5d3f	-0.006724983
250	0xbc578130	-0.013153359
251	0xbca9c987	-0.020725979
252	0x3c60d6cb	0.013723086
253	0xbbd1f402	-0.006407262
254	0xbae2e269	-0.0017309907
255	0x3b849226	0.0040457426

lstm.bias_ih_l0 f4 [512]
0	0xbf13a799	-0.5767761
1	0xbd9f9031	-0.07791174
2	0xbe8bc1b4	-0.2729622
3	0xbf27396a	-0.6532198
4	0xbf169b16	-0.5883039
5	0xbeb6f3e0	-0.35732937
6	0xbe4a8f3a	-0.19781199
7	0xbf1f1360	-0.6213894
8	0xbdda278d	-0.10652075
9	0xbecabd4a	-0.3959754
10	0xbf0b4ba0	-0.5441227
11	0xbea4cc9b	-0.32187352
12	0xbf030451	-0.5117846
13	0xbf425e2c	-0.75924945
14	0xbeaa5d66	-0.33274382
15	0xbe9eeba8	-0.31039166
16	0xbefa775d	-0.48919192
17	0xbeab34a9	-0.33438614
18	0xbea8c2b6	-0.32961053
19	0xbee1fe02	-0.44139105
20	0xbeef5a61	-0.4674864
21	0xbf0cd236	-0.55008256
22	0xbe8bba32	-0.27290493
23	0xbe8468d9	-0.25861242
24	0xbe8d35e7	-0.27580187
25	0xbe6de6df	-0.23232602
26	0xbe8b6aad	-0.27229825
27	0xbf0a79fe	-0.54092395
28	0xbe88be31	-0.26707605
29	0xbf47ba9c	-0.7801912
30	0xbe5caaa5	-0.2154947
31	0xbf2b9af8	-0.6703334
32	0xbd8cbd8e	-0.06872092
33	0xbf2bf4f0	-0.6717062
34	0xbf77fac8	-0.96867037
35	0xbeae0866	-0.33990782
36	0xbf028b3f	-0.5099372
37	0xbf087ee5	-0.53318626
38	0xbe216806	-0.15762338
39	0xbe9535ef	-0.2914271
40	0xbf106c68	-0.56415415
41	0xbe512574	-0.20424443
42	0xbf96a9f1	-1.1770612
43	0xbf00af53	-0.50267524
44	0xbe02ed2c	-0.12785786
45	0xbd599810	-0.053123534
46	0xbf0803a8	-0.5313058
47	0xbee86832	-0.45391995
48	0xbe101a15	-0.1407245
49	0xbeb6ff26	-0.35741538
50	0xbedbcb60	-0.429286
51	0xbde42c1c	-0.11141226
52	0xbe768c53	-0.24076967
53	0xbf3b203c	-0.7309606
54	0xbe08284e	-0.13296625
55	0xbf691f7d	-0.9106367
56	0xbe884cf0	-0.266212
57	0xbf1e13ed	-0.61749154
58	0xbf8ad59d	-1.084644
59	0xbf20fdb1	-0.628871
60	0xbee4c4c1	-0.4468136
61	0xbec865d4	-0.3914019
62	0xbe91b20e	-0.28456157
63	0xbf6c41b8	-0.9228778
64	0xbe4027ed	-0.1876523
65	0xbed77e42	-0.42088515
66	0xbe0d2886	-0.1378499
67	0xbe6785e3	-0.22609667
68	0xbecd6866	-0.40118712
69	0xbec08f85	-0.37609497
70	0xbee48a32	-0.44636685
71	0xbf0f81b9	-0.56057316
72	0xbecbda14	-0.39814818
73	0xbf007aa6	-0.50187147
74	0xbe07927b	-0.13239472
75	0xbe9d710a	-0.30750304
76	0xbe88d333	-0.26723632
77	0xbf538ba5	-0.82634956
78	0xbe8dca58	-0.2769344
79	0xbe96bddd	-0.2944173
80	0xbe919d42	-0.2844029
81	0xbebf4406	-0.37356585
82	0xbc9a9ef2	-0.01887462
83	0xbf01ecfc	-0.50752234
84	0xbeee734b	-0.46572337
85	0xbf4781d7	-0.77932495
86	0xbe8d7f65	-0.27636257
87	0xbf10405f	-0.5634822
88	0xbea9b9c4	-0.3314954
89	0xbf0342ab	-0.512736
90	0xbe25026b	-0.16114204
91	0xbe674d45	-0.2258807
92	0xbef8789b	-0.48529515
93	0xbe6a8ebc	-0.22906011
94	0xbf1e4d92	-0.6183711
95	0xbec699d4	-0.38789237
96	0xbeb00550	-0.34379053
97	0xbf00431a	-0.5010239
98	0xbda2d29c	-0.07950327
99	0xbebb806f	-0.36621425
100	0xbe3d149a	-0.1846489
101	0xbf0ed778	-0.5579753
102	0xbf05781d	-0.52136403
103	0xbe64f751	-0.22359969
104	0xbec82be7	-0.39095995
105	0xbf0309dd	-0.51186925
106	0xbf385d4b	-0.72017354
107	0xbf171e86	-0.5903095
108	0xbe318244	-0.17334849
109	0xbed81fdd	-0.4221181
110	0xbf125286	-0.5715717
111	0xbf33d5a8	-0.7024789
112	0x3d2c1eb9	0.042021487
113	0xbedabec1	-0.4272366
114	0xbf02bf7f	-0.5107345
115	0xbeb86931	-0.36017755
116	0xbf5b4c61	-0.8566342
117	0xbf655870	-0.8958807
118	0xbebb383a	-0.36566335
119	0xbf2a4cb5	-0.66523296
120	0xbee1c2bf	-0.44093892
121	0xbe8b1cd2	-0.27170426
122	0xbe491ea4	-0.19640595
123	0xbea1fa1c	-0.3163613
124	0xbf1c3384	-0.61016107
125	0xbef98a12	-0.48738152
126	0xbebbbc3e	-0.36667055
127	0xbead2c21	-0.3382273
128	0xbf1164ac	-0.5679424
129	0xbf418098	-0.75586843
130	0xbf43aba1	-0.7643376
131	0xbf51e908	-0.819962
132	0xbf251a22	-0.64493
133	0xbf39a38d	-0.72515184
134	0xbf496f3a	-0.78685343
135	0xbf0467fe	-0.5172118
136	0xbf2ada76	-0.66739595
137	0xbf2eb7ef	-0.6824941
138	0xbf174523	-0.5908987
139	0xbf4a41f8	-0.7900691
140	0xbf1a0f3c	-0.60179496
141	0xbf5e19d7	-0.8675818
142	0xbf27bd1a	-0.6552292
143	0xbf22cfa9	-0.63598114
144	0xbf2a9d1f	-0.66646
145	0xbf4c6c2e	-0.7985257
146	0xbf2ef7f4	-0.68347096
147	0xbf2eb322	-0.68242085
148	0xbf42a031	-0.7602568
149	0xbf297b00	-0.6620331
150	0xbf2dbb9d	-0.678644
151	0xbf197168	-0.5993867
152	0xbf400540	-0.7500801
153	0xbf6cd98a	-0.9251944
154	0xbf6c39f6	-0.9227594
155	0xbf311478	-0.6917186
156	0xbf1be234	-0.60892034
157	0xbf39788d	-0.7244957
158	0xbf25735a	-0.6462914
159	0xbf3022c8	-0.6880307
160	0xbf3b50ce	-0.73170173
161	0xbf56cef0	-0.8390951
162	0xbf464d8c	-0.7746208
163	0xbf2f2362	-0.68413365
164	0xbf4cb9d9	-0.7997108
165	0xbf446dc2	-0.7672998
166	0xbf428be0	-0.7599468
167	0xbf2f0569	-0.6836763
168	0xbf54e422	-0.83160603
169	0xbf313f5e	-0.69237316
170	0xbf06349f	-0.52424043
171	0xbf17689f	-0.59144014
172	0xbf3032e3	-0.68827647
173	0xbf3a2bf9	-0.72723347
174	0xbf2e7dee	-0.68160903
175	0xbf1d29fc	-0.6139219
176	0xbf2e832d	-0.6816891
177	0xbf3b31f7	-0.73123115
178	0xbf4e297e	-0.8053206
179	0xbf153f2d	-0.58299524
180	0xbf2bc91b	-0.6710374
181	0xbf487706	-0.78306615
182	0xbf1d3c93	-0.61420554
183	0xbf627778	-0.88463545
184	0xbf37cfe9	-0.7180162
185	0xbef88add	-0.48543444
186	0xbf1cca78	-0.6124644
187	0xbf503c2b	-0.8134181
188	0xbf4577be	-0.7713584
189	0xbf1edbdf	-0.62054247
190	0xbf1ddc59	-0.6166435
191	0xbf42afdd	-0.76049596
192	0xbf43ae13	-0.7643749
193	0xbf586a98	-0.8453765
194	0xbf00373c	-0.5008428
195	0xbf68dc87	-0.909615
196	0xbf45314f	-0.77028364
197	0xbf2a223e	-0.664585
198	0xbf23a7c7	-0.6392788
199	0xbf65ac56	-0.8971609
200	0xbf3b5f65	-0.73192436
201	0xbf32ffae	-0.69921386
202	0xbf534191	-0.8252192
203	0xbf09fad8	-0.5389838
204	0xbf443ce1	-0.76655394
205	0xbf3a8b1e	-0.72868526
206	0xbf322e3d	-0.69601804
207	0xbf382d01	-0.7194367
208	0xbf460d23	-0.77363795
209	0xbf184fe4	-0.59496903
210	0xbf797fda	-0.9746071
211	0xbf555e49	-0.8334699
212	0xbf48716a	-0.78298056
213	0xbf39bd79	-0.7255474
214	0xbf396b4d	-0.72429353
215	0xbf3a5786	-0.727898
216	0xbf2db3b3	-0.67852324
217	0xbf578618	-0.84188986
218	0xbf39910a	-0.7248694
219	0xbf3e4911	-0.7433024
220	0xbf2322f9	-0.6372524
221	0xbf54ff58	-0.83202124
222	0xbf420677	-0.75791115
223	0xbf324b1d	-0.69645864
224	0xbf3732f4	-0.71562123
225	0xbf4010ee	-0.7502583
226	0xbf69dce1	-0.9135266
227	0xbf413ec2	-0.75486386
228	0xbf2da992	-0.6783687
229	0xbf376453	-0.7163746
230	0xbf3ba384	-0.7329638
231	0xbf43ebfe	-0.7653197
232	0xbf44b042	-0.7683145
233	0xbf306e3e	-0.68918216
234	0xbf24c5cc	-0.64364314
235	0xbf25f261	-0.64822966
236	0xbf6e85f5	-0.9317315
237	0xbf24dc75	-0.6439889
238	0xbf63ed21	-0.89033705
239	0xbf3c42f4	-0.7353966
240	0xbee890e4	-0.45423043
241	0xbf1f64ec	-0.6226337
242	0xbf48d1e7	-0.78445286
243	0xbf4ca181	-0.79933935
244	0xbf2f1fa3	-0.6840765
245	0xbf2cb7eb	-0.67468137
246	0xbf433bc5	-0.76263076
247	0xbf3e6ab5	-0.7438157
248	0xbf494a2c	-0.786288
249	0xbf617510	-0.8806925
250	0xbf43860e	-0.76376426
251	0xbf3c97bb	-0.7366902
252	0xbf5168df	-0.81800646
253	0xbf3ecb22	-0.74528706
254	0xbf424a12	-0.7589427
255	0xbf4bc9e7	-0.79604954

lstm.bias_hh_l0 f4 [512]
0	0xbf1c0809	-0.6094976
1	0xbdfcf352	-0.12351097
2	0xbe946288	-0.28981423
3	0xbf2b2a37	-0.6686129
4	0xbf172613	-0.5904247
5	0xbee45354	-0.44594824
6	0xbe814ad0	-0.2525239
7	0xbf186190	-0.5952387
8	0xbe38d85c	-0.18051285
9	0xbec16b8b	-0.3777736
10	0xbf0adbbe	-0.5424155
11	0xbeb56937	-0.35431835
12	0xbf0fc7f5	-0.56164485
13	0xbf42b1cc	-0.76052547
14	0xbea7c7c6	-0.32769603
15	0xbeb0f034	-0.3455826
16	0xbf08c89c	-0.53431106
17	0xbeb41b89	-0.35177258
18	0xbe864cb4	-0.26230395
19	0xbedcffdb	-0.43163952
20	0xbeffb8ef	-0.4994578
21	0xbf00c2c8	-0.5029721
22	0xbe9dba59	-0.30806234
23	0xbe933cd5	-0.2875735
24	0xbea18330	-0.315454
25	0xbea2b06f	-0.31775233
26	0xbe74e736	-0.23916325
27	0xbefb49ee	-0.4907984
28	0xbe57334e	-0.21015665
29	0xbf3f410e	-0.7470864
30	0xbe8c884b	-0.27447733
31	0xbf2f0e68	-0.6838136
32	0xbe195173	-0.14972477
33	0xbf189096	-0.5959562
34	0xbf650568	-0.89461374
35	0xbea4f9a3	-0.32221708
36	0xbee82807	-0.45343038
37	0xbf220714	-0.6329205
38	0xbe2851b1	-0.16437413
39	0xbeacd37d	-0.33755103
40	0xbeea1710	-0.4572072
41	0xbe4bca42	-0.19901374
42	0xbf9b90c1	-1.215355
43	0xbf1d2e8b	-0.61399144
44	0xbe138518	-0.1440624
45	0xbd92f963	-0.07176473
46	0xbf015baf	-0.50530523
47	0xbf09f94e	-0.53896034
48	0xbd9dc612	-0.077037945
49	0xbe9ea8be	-0.30988115
50	0xbeca79e7	-0.3954613
51	0xbe09fdc3	-0.13475709
52	0xbe64fca6	-0.22362003
53	0xbf24b52b	-0.6433894
54	0xbe300276	-0.17188439
55	0xbf71e17b	-0.9448468
56	0xbe901716	-0.28142613
57	0xbeff234c	-0.49831617
58	0xbf94cbcc	-1.1624694
59	0xbf1fe8b1	-0.62464434
60	0xbeeafdd0	-0.4589677
61	0xbead37e0	-0.33831692
62	0xbecfb98e	-0.40571254
63	0xbf74f21e	-0.9568194
64	0xbe174c23	-0.14775138
65	0xbeb0a81c	-0.34503257
66	0xbdbe66e7	-0.09296971
67	0xbe7b8440	-0.24562168
68	0xbef07419	-0.46963575
69	0xbee610a7	-0.4493458
70	0xbedfaa82	-0.43684775
71	0xbf0e0f3f	-0.55492014
72	0xbeae0dd6	-0.3399493
73	0xbf07eefc	-0.53099036
74	0xbe1444b0	-0.14479327
75	0xbe7f949a	-0.24959031
76	0xbe3d68bb	-0.18496983
77	0xbf58f6ae	-0.84751403
78	0xbea1429d	-0.31496134
79	0xbe980820	-0.296937
80	0xbea3387e	-0.31879038
81	0xbeafc3b7	-0.34329006
82	0xbd43dd9c	-0.047818765
83	0xbecc226a	-0.39870006
84	0xbf0ae68d	-0.5425804
85	0xbf2e41f6	-0.680694
86	0xbe4fc67f	-0.20290564
87	0xbf01c50e	-0.50691307
88	0xbe7704c7	-0.24122916
89	0xbf1860ae	-0.5952252
90	0xbdafdf29	-0.08587486
91	0xbe2f05fb	-0.17092125
92	0xbefec123	-0.49756727
93	0xbe85aa32	-0.2610641
94	0xbf159ab4	-0.58439183
95	0xbed7ac90	-0.42123842
96	0xbeba0412	-0.3633123
97	0xbefe7664	-0.496997
98	0xbd949582	-0.07255079
99	0xbeb9f3ad	-0.36318722
100	0xbe250cc6	-0.16118154
101	0xbf0eeaa6	-0.55826795
102	0xbedf7d68	-0.43650365
103	0xbe93ad86	-0.28843325
104	0xbee0918a	-0.43861037
105	0xbf028c22	-0.50995076
106	0xbf34f6c0	-0.7068901
107	0xbf2f7917	-0.68544143
108	0xbe205b86	-0.15659913
109	0xbeeade51	-0.4587274
110	0xbef51bfb	-0.4787291
111	0xbf154186	-0.58303106
112	0x3ca6e2f2	0.020371888
113	0xbee977a8	-0.45599103
114	0xbef899a4	-0.48554718
115	0xbebb5a57	-0.3659236
116	0xbf654a2d	-0.8956631
117	0xbf6c705c	-0.92358947
118	0xbebdd89c	-0.37079322
119	0xbf28d251	-0.6594592
120	0xbeb50da2	-0.35361964
121	0xbe8fb35f	-0.28066537
122	0xbdda3401	-0.1065445
123	0xbedebc34	-0.43502963
124	0xbf13f115	-0.57789737
125	0xbf02e8ef	-0.5113668
126	0xbeb1e0d7	-0.34741852
127	0xbe97845d	-0.29593173
128	0xbf1a25cf	-0.6021394
129	0xbf32bd46	-0.6982006
130	0xbf364aaf	-0.7120771
131	0xbf4be8ad	-0.7965191
132	0xbf2a041b	-0.66412514
133	0xbf3177be	-0.6932334
134	0xbf51cd4d	-0.8195389
135	0xbf089bde	-0.53362834
136	0xbf2b5763	-0.66930217
137	0xbf3e2bc4	-0.7428553
138	0xbf1c06e2	-0.60948
139	0xbf43f361	-0.7654324
140	0xbf1d2de4	-0.6139815
141	0xbf559b6c	-0.8344028
142	0xbf2d944b	-0.678044
143	0xbf2cf3df	-0.6755962
144	0xbf2b4ccb	-0.6691405
145	0xbf4a6400	-0.7905884
146	0xbf33a06a	-0.7016665
147	0xbf3129a4	-0.69204164
148	0xbf3d065f	-0.73837847
149	0xbf2b7a71	-0.66983706
150	0xbf36244a	-0.7114912
151	0xbf16ff9e	-0.5898379
152	0xbf3e59b7	-0.74355644
153	0xbf5bc536	-0.85847795
154	0xbf5ec6a2	-0.8702184
155	0xbf34741b	-0.7048966
156	0xbf27b019	-0.6550308
157	0xbf32fa48	-0.6991315
158	0xbf1eace0	-0.61982536
159	0xbf3e9dc6	-0.74459493
160	0xbf3852b8	-0.7200122
161	0xbf571c8f	-0.8402795
162	0xbf489cab	-0.78364056
163	0xbf2f8008	-0.68554735
164	0xbf4bbef4	-0.79588246
165	0xbf39ccb0	-0.72577953
166	0xbf3946df	-0.72373766
167	0xbf2ff6e2	-0.6873609
168	0xbf5f517a	-0.872337
169	0xbf330fae	-0.699458
170	0xbf099e42	-0.5375711
171	0xbf204caf	-0.6261701
172	0xbf2d1fe1	-0.6762677
173	0xbf34fce7	-0.706984
174	0xbf39d7e1	-0.7259503
175	0xbf24d683	-0.6438982
176	0xbf325f64	-0.69676805
177	0xbf33b4c1	-0.70197684
178	0xbf485e99	-0.78269345
179	0xbf29e0e8	-0.66358805
180	0xbf25d03f	-0.64770883
181	0xbf45fe9a	-0.77341616
182	0xbf194d82	-0.5988389
183	0xbf5e986a	-0.86951315
184	0xbf3b24b7	-0.731029
185	0xbefcb2ff	-0.49355313
186	0xbf1f630e	-0.6226052
187	0xbf562437	-0.8364901
188	0xbf3fa9c7	-0.74868435
189	0xbf26c0a3	-0.6513769
190	0xbf0fcf43	-0.5617563
191	0xbf460551	-0.7735186
192	0xbf38cd71	-0.7218848
193	0xbf6003ba	-0.87505686
194	0xbf06353a	-0.5242497
195	0xbf5e6431	-0.8687163
196	0xbf4afe14	-0.7929394
197	0xbf1d0bef	-0.61346334
198	0xbf335715	-0.7005475
199	0xbf609dd3	-0.8774082
200	0xbf38edaf	-0.72237676
201	0xbf3ded79	-0.7419048
202	0xbf4a3c8e	-0.7899865
203	0xbf06a883	-0.5260088
204	0xbf4283c1	-0.7598229
205	0xbf3c811e	-0.7363452
206	0xbf2edf77	-0.6830973
207	0xbf2e07fa	-0.6798092
208	0xbf4d7ad7	-0.80265564
209	0xbf1027c9	-0.5631071
210	0xbf73e03a	-0.9526402
211	0xbf5d5cab	-0.86469525
212	0xbf356dae	-0.7087048
213	0xbf3d2d34	-0.738971
214	0xbf3611f1	-0.71121126
215	0xbf2f09c0	-0.6837425
216	0xbf27b824	-0.6551535
217	0xbf57c04b	-0.8427779
218	0xbf38c1ba	-0.72170603
219	0xbf462ddd	-0.7741373
220	0xbf1f22c9	-0.6216245
221	0xbf528758	-0.8223777
222	0xbf451bb4	-0.76995397
223	0xbf3e3a2a	-0.743075
224	0xbf32fca0	-0.69916725
225	0xbf434c77	-0.7628855
226	0xbf67b2fe	-0.90507495
227	0xbf486362	-0.78276646
228	0xbf2476b1	-0.6424361
229	0xbf2b90d2	-0.67017853
230	0xbf3c6bc0	-0.73601913
231	0xbf42bc55	-0.7606862
232	0xbf43c69b	-0.7647492
233	0xbf2a282d	-0.66467553
234	0xbf19701b	-0.59936684
235	0xbf261087	-0.6486897
236	0xbf5ef3da	-0.8709084
237	0xbf21719c	-0.6306398
238	0xbf64e2be	-0.8940848
239	0xbf350ec8	-0.7072568
240	0xbee9b243	-0.45643815
241	0xbf1cef1d	-0.6130236
242	0xbf3e4668	-0.7432618
243	0xbf40cab7	-0.7530932
244	0xbf2ae063	-0.66748637
245	0xbf32e578	-0.6988139
246	0xbf4d5708	-0.80210924
247	0xbf41ba1e	-0.7567462
248	0xbf4ac3ec	-0.79205203
249	0xbf639006	-0.8889164
250	0xbf3b5f04	-0.7319186
251	0xbf463684	-0.77426934
252	0xbf457907	-0.771378
253	0xbf39634d	-0.72417146
254	0xbf35c464	-0.71002793
255	0xbf45ce1c	-0.7726762

fc.weight f4 [2, 128]
0	0x3d31c2c4	0.043398634
1	0xbe2ca459	-0.16859569
2	0x3d8fb0e2	0.070161596
3	0xbf0b9218	-0.54519796
4	0x3f36be40	0.7138405
5	0xbe21ff6c	-0.15820092
6	0xbdbe8222	-0.093021646
7	0x3e9bbad6	0.30415982
8	0x3de08531	0.10962904
9	0xbd806357	-0.062689476
10	0xbcf9c137	-0.03048764
11	0xbda195f6	-0.07889931
12	0xbd1e9baf	-0.03872269
13	0xbf11c125	-0.5693534
14	0x3d8a13b9	0.06742043
15	0x3e42d5cd	0.19026871
16	0x3e525700	0.20541
17	0xbcc7f83c	-0.02441036
18	0xbd0ddacd	-0.034632493
19	0x3d9306ca	0.07179029
20	0x3e49ce15	0.1970752
21	0xbd7cfb0c	-0.061762854
22	0x3d537ee0	0.05163467
23	0x3e09e069	0.13464512
24	0xbeccb2c7	-0.39980146
25	0x3e3906fb	0.18069069
26	0xbda30081	-0.079590805
27	0xbeb9fa80	-0.3632393
28	0x3de6c5cf	0.11268198
29	0x3e4ec664	0.20192868
30	0x3bc13389	0.005896036
31	0xbe30c42d	-0.17262335
32	0xbd9f590b	-0.077806555
33	0xbf383503	-0.7195589
34	0x3f0d0cb0	0.55097485
35	0x3d838d3c	0.06423423
36	0xbeb54c79	-0.35409907
37	0xbe40f873	-0.18844776
38	0x3ed3fc63	0.41403493
39	0xbe6f468c	-0.23366755
40	0xbe0225f9	-0.12709798
41	0x3ee07601	0.4384003
42	0xbf66bc6b	-0.90131253
43	0x3cdd261c	0.026995711
44	0x3e30ad3a	0.1725358
45	0xbe6b4ab8	-0.22977722
46	0x3e513fd7	0.20434509
47	0xbe27915a	-0.16364041
48	0xbdfd43e5	-0.123664655
49	0xbeaf13ce	-0.34194797
50	0xbd8d5788	-0.06901461
51	0x3d0baf84	0.03410293
52	0xbe3006a8	-0.17190039
53	0xbf0ec9b4	-0.55776525
54	0x3cac32a2	0.021020237
55	0x3f568ce5	0.8380874
56	0x3d2340ac	0.039856598
57	0xbd2ac1d0	-0.04168874
58	0x3f3b90d2	0.73267853
59	0x3efe5564	0.49674523
60	0xbb1e9e8c	-0.0024203388
61	0xbe2fd2ed	-0.17170306
62	0xbe2682ba	-0.16260806
63	0x3f2c8fbb	0.67406815
64	0x3d06c336	0.03290101
65	0x3c7e4ada	0.015520776
66	0x3d5279ee	0.051385812
67	0xbdcede7f	-0.101010315
68	0xbdc18b4d	-0.09450398
69	0xbca23b1a	-0.019803572
70	0xbd67f7b8	-0.056632727
71	0xbeee09bf	-0.4649181
72	0x3b8530c9	0.0040646535
73	0xbd20b342	-0.039233454
74	0xbc11bad4	-0.008894641
75	0xbe49ec75	-0.19719107
76	0xbdf6a8b2	-0.12043895
77	0xbee2c127	-0.4428799
78	0xbda335ed	-0.0796927
79	0x3d843fab	0.06457456
80	0x3e82c5b2	0.25541455
81	0x3d7be4b9	0.061497424
82	0x3d0947f3	0.03351588
83	0xbe95d11c	-0.292611
84	0xbdfab939	-0.1224236
85	0xbee19b8c	-0.44063985
86	0xbd425083	-0.047440063
87	0xbe39165d	-0.18074937
88	0x3c589cfc	0.013221022
89	0x3cd118c0	0.025524497
90	0xbd61f117	-0.05516156
91	0x3e4b1e2e	0.19835731
92	0x3dca2534	0.09870377
93	0x3db191af	0.08670365
94	0xbec15f45	-0.37767997
95	0x3de0bde8	0.10973722
96	0x3df166e7	0.11787205
97	0xbdb1529a	-0.08658333
98	0x3e8ee8b0	0.279119
99	0x3e1a562e	0.15071937
100	0x3b839dac	0.0040165987
101	0x3e649e4c	0.2232601
102	0xbc2c3ae3	-0.010512087
103	0xbe2ff2d6	-0.17182478
104	0x3e48d096	0.19610819
105	0xba051d5c	-0.0005077922
106	0x3e8f906c	0.28039873
107	0x3e8f48f9	0.2798536
108	0x3df43823	0.1192477
109	0x3e093142	0.13397697
110	0x3da54a9a	0.0807087
111	0x3ec5dee6	0.3864662
112	0xbd78aa95	-0.060709555
113	0x3e551774	0.20809728
114	0xbee00576	-0.43754166
115	0xbdba2c96	-0.09090535
116	0xbf2a452a	-0.66511786
117	0x3f21b970	0.6317358
118	0xbe5bba75	-0.21457846
119	0xbe8d78e6	-0.276313
120	0xbd82307a	-0.063569024
121	0x3dccd2f5	0.10001174
122	0xbe18c4a8	-0.14918768
123	0x3b9a11fa	0.00470185
124	0x3eaa68d9	0.33283117
125	0xbe9413e8	-0.28921437
126	0xbdf17954	-0.1179072
127	0x3e0459b2	0.12924841
128	0x3ed4822c	0.41505563
129	0xbe607b1e	-0.21921965
130	0x3ec42d3a	0.38315755
131	0x3df344dd	0.11878369
132	0x3cc0c3df	0.023530899
133	0xbe772044	-0.24133402
134	0x3ecc8297	0.39943382
135	0x3e9160a1	0.28394035
136	0xbe764a2f	-0.24051736
137	0x3e9c6914	0.30548918
138	0xbedda7b5	-0.43292013
139	0x3ebeb5ea	0.37248164
140	0xbeb03ace	-0.34419864
141	0xbe5245ea	-0.20534483
142	0xbe802435	-0.25027624
143	0xbea4a138	-0.3215425
144	0xbe6722dc	-0.22571892
145	0xbebdd4c1	-0.3707638
146	0x3ee38cb4	0.44443285
147	0x3ebc2717	0.36748573
148	0xbebe950f	-0.37223098
149	0x3eb9dd18	0.36301494
150	0x3ee9ad1e	0.4563989
151	0xbe3332b2	-0.17499807
152	0xbd276fba	-0.040878035
153	0xbeefcc08	-0.4683535
154	0xbf037e75	-0.51364833
155	0xbe83997f	-0.25703046
156	0xbe6b9149	-0.2300464
157	0xbedb78d0	-0.4286561
158	0xbe4b64d6	-0.19862685
159	0xbee733e5	-0.4515678
160	0xbe8d23cd	-0.27566376
161	0xbdf7a3c9	-0.120917864
162	0xbe1f164c	-0.1553585
163	0x3eac2efd	0.336296
164	0x3e1a08cc	0.15042418
165	0x3ec06195	0.3757445
166	0x3e56e844	0.2098704
167	0x3e9ce457	0.3064296
168	0xbeece7cc	-0.46270597
169	0xbcf458c6	-0.029827487
170	0xbe163a77	-0.1467074
171	0x3ee51e72	0.4474979
172	0x3e813d45	0.25242057
173	0xbe756545	-0.23964413
174	0x3e98ea48	0.29866242
175	0x3ea0bd58	0.31394458
176	0xbe43d5be	-0.19124505
177	0x3e5e0771	0.21682526
178	0x3ec63dd3	0.38719043
179	0x3eb0a791	0.34502843
180	0x3e5fe085	0.21862991
181	0xbe09531b	-0.13410608
182	0xbe1f104f	-0.15533565
183	0xbd27a8eb	-0.040932577
184	0x3ec9a6a7	0.39384958
185	0xbea77de7	-0.32713243
186	0x3d2689d4	0.040658787
187	0x3dad8538	0.08472675
188	0xbeca2982	-0.39484793
189	0xbecfca22	-0.40583903
190	0xbe8e3c3a	-0.27780324
191	0xbda8522f	-0.082188
192	0x3ea2e749	0.31817082
193	0x3f310aba	0.6915699
194	0x3e1f4c90	0.1555655
195	0xbf08dfbc	-0.5346639
196	0x3ed0d7cf	0.4078965
197	0xbe80511c	-0.25061882
198	0x3f137399	0.57598263
199	0xbdec9bd2	-0.11553158
200	0xbedd5bbd	-0.43234053
201	0xbeea8246	-0.45802516
202	0x3eee3e1e	0.46531767
203	0x3e4a4882	0.19754222
204	0xbebe5ce2	-0.3718024
205	0xbe520e43	-0.20513253
206	0x3ed626bb	0.41826424
207	0x3edb61b5	0.42847982
208	0x3ea13dc5	0.3149244
209	0xbe8c8ef4	-0.27452815
210	0xbee1ebc6	-0.44125193
211	0xbea76c0f	-0.3269963
212	0x3eba1d9a	0.3635071
213	0xbde83186	-0.11337571
214	0xbeb7cfcb	-0.3590072
215	0xbea1cb4d	-0.3160042
216	0xbe929d88	-0.28635812
217	0xbf2c69a4	-0.67348695
218	0xbeed6ba7	-0.46371195
219	0xbe693e71	-0.22777726
220	0x3eb4c363	0.35305318
221	0x3e93b7af	0.28851077
222	0xbe9f5500	-0.31119537
223	0xbeb1250b	-0.34598574
224	0x3e9c791e	0.30561155
225	0x3ed9bb10	0.4252553
226	0xbe8277ca	-0.25482017
227	0xbe9e2019	-0.30883864
228	0xbe7eeafd	-0.24894328
229	0xbee6cdb5	-0.45078817
230	0xbebf596b	-0.37372908
231	0x3ebcc020	0.3686533
232	0x3ec52222	0.38502604
233	0xbee64a32	-0.44978482
234	0x3eb790fc	0.35852802
235	0x3e33ca08	0.17557538
236	0xbee7c427	-0.4526684
237	0x3eaa4d8e	0.33262295
238	0xbf08bada	-0.5341011
239	0xbea59f24	-0.32347977
240	0xbdd26d51	-0.10274757
241	0xbe432045	-0.19055279
242	0xbe1dad0d	-0.15398045
243	0xbe9ae405	-0.3025209
244	0xbdb95eb5	-0.09051267
245	0x3dc0223a	0.09381528
246	0xbe682907	-0.226719
247	0x3e5013f2	0.20320109
248	0xbeedaf10	-0.46422625
249	0xbf02c58a	-0.5108267
250	0x3e6f790a	0.23386016
251	0xbef7eb77	-0.48421833
252	0xbe6e7728	-0.23287642
253	0xbe639789	-0.22225775
254	0x3ea67efe	0.32518762
255	0x3e9a2fa2	0.30114466

fc.bias f4 [2]
0	0xbd1d9364	-0.03847064
1	0x3c8831aa	0.016625244
