project/vascular_monitor/best_vae.pth (torch, 26950 bytes, 10 tensors)

fc1.weight f4 [32, 64]
0.15522428 -0.08171134 -0.07971565 -0.015522951 0.0001548833 0.12319242 -0.05633617 0.06509301
-0.042918146 -0.00631223 -0.043196786 0.08181712 0.07993742 -0.0022460122 -0.07691633 -0.069776036
0.029253466 -0.123137996 -0.04330895 0.10634558 -0.13123369 -0.019948239 0.066438355 0.111217864
-0.002555678 -0.099940926 0.026072819 0.017101446 -0.13318226 -0.07866466 -0.10048781 -0.11139902
-0.08499279 0.07552614 0.08930191 -0.10536246 -0.04466946 0.080286115 -0.11842867 0.10071812
-0.116794474 -0.09855425 -0.040564753 0.10075023 -0.051872034 -0.012694755 -0.10856126 0.010802881
-0.12150005 0.02106298 0.05640557 0.074985035 -0.11990908 -0.10319999 -0.12000242 0.04131655
-0.06450251 0.06213096 -0.0457908 0.08835652 -0.03605534 -0.122250296 0.06679449 -0.11203631
-0.06502858 -0.0337232 -0.107017905 0.10501055 -0.10190022 -0.0718691 -0.060569942 -0.032981563
-0.027544478 -0.058337886 0.040326178 -0.02820555 0.0804293 0.082980275 0.008195029 -0.12505145
0.022831948 0.0481895 -0.09482533 -0.059179682 -0.12113443 0.11409064 0.043693412 0.09433943
0.119390145 0.081069194 0.0021143106 0.0010748369 0.015439835 0.08282088 0.026372926 0.068473905
-0.053778835 -0.0145355305 -0.076191284 0.101729035 0.0863314 0.11192605 0.049257386 -0.116095126
0.0075758 -0.09412206 0.00565894 -0.0797758 -0.03708925 -0.090103626 0.047271546 -0.11364387
-0.050436668 0.006368857 -0.07837847 -0.051567085 -0.052456163 -0.009638141 -0.026972245 0.010442373
0.108942546 0.03602088 -0.0717985 0.06478783 0.09278911 -0.05644206 0.07712112 0.107345164
0.05258803 -0.08487512 -0.066897586 -0.025479183 -0.11180723 -0.036053464 0.070138976 0.07377808
-0.09286182 0.07953194 0.08821325 0.04994805 0.033425137 -0.111542776 0.11714341 -0.10807249
0.09022693 -0.08597171 0.043481186 -0.069882676 -0.005474344 0.09996611 -0.10036549 0.017925486
-0.069427386 -0.041603968 0.12369239 -0.091146514 -0.01301983 -0.022395328 0.05426185 -0.0927863
-0.031858608 0.1069684 0.061505586 0.115207896 0.050316155 -0.016197786 0.10131881 0.014476255
-0.11730985 0.08330321 0.040211156 -0.062189117 -0.0040409714 -0.015545443 -0.12340473 -0.024134874
0.10273406 0.068744585 0.039218873 0.10336392 -0.08598551 -0.031997293 0.10766822 0.09416072
0.07888621 -0.0026923567 0.004042968 -0.06971328 0.081349 -0.044413716 -0.11096208 0.10915321
-0.007041301 -0.06191232 -0.019854806 0.062134057 0.06119469 -0.028889436 0.09168501 -0.030657431
0.010470002 0.046440624 0.027976368 -0.023076665 -0.06540918 -0.05545956 0.077793784 -0.03836484
-0.024827681 0.106117934 0.09205438 -0.032538846 0.11474767 0.03642618 -0.0951508 -0.014684014
-0.12293545 -0.025592849 0.10019845 0.015233292 -0.10004639 -0.07174105 -0.09634277 0.09991939
-0.029255658 -0.10816252 0.10334378 -0.08232747 -0.008663792 9.8645134e-05 0.05055094 -0.014625719
-0.0060481234 0.09648649 0.03205249 -0.059123226 0.04448168 0.10254004 0.0258853 -0.07711891
0.0757234 -0.11908375 0.06632251 -0.09715302 -0.0821946 0.033312988 -0.0051826993 -0.12120645
0.016930345 0.09380179 -0.00032678002 0.015213553 0.05508571 -0.075657494 0.023175873 0.008558221
00000000: 1df3 1e3e 4658 a7bd f541 a3bd fa53 7ebc
00000010: 2b68 2239 4f4c fc3d c1c0 66bd 7c4f 853d
00000020: f0ca 2fbd d3d6 cebb 1def 30bd bc8f a73d
00000030: 3bb6 a33d d531 13bb 4f86 9dbd bde6 8ebd
00000040: f7a4 ef3c c62f fcbd ba64 31bd b6cb d93d
00000050: 2062 06be 7d6a a3bc d510 883d 31c6 e33d
00000060: 297d 27bb d4ad ccbd aa96 d53c 5518 8c3c
00000070: ee60 08be f01a a1bd 8ecc cdbd 2b25 e4bd
00000080: b310 aebd 73ad 9a3d ebe3 b63d 46c8 d7bd
00000090: 53f7 36bd 0c6d a43d bb8a f2bd 4d45 ce3d
000000a0: f131 efbd d0d6 c9bd 3a27 26bd 2356 ce3d
000000b0: c577 54bd a9fd 4fbc 5e55 debd 91fe 303c
000000c0: 05d5 f8bd 458c ac3c 8709 673d c191 993d
000000d0: e492 f5bd 845a d3bd d4c3 f5bd 8b3b 293d
000000e0: e419 84bd 097d 7e3d 228f 3bbd 43f4 b43d
000000f0: c4ae 13bd 5d5e fabd 8dcb 883d 4b73 e5bd
00000100: b42d 85bd 5721 0abd 342c dbbd c50f d73d
00000110: 10b1 d0bd 1b30 93bd 3018 78bd ad17 07bd
00000120: f5a4 e1bc b5f3 6ebd 102d 253d 530f e7bc
00000130: 1eb8 a43d 90f1 a93d 7144 063c 7d0d 00be
00000140: 110a bb3c 5a62 453d c833 c2bd 6566 72bd
00000150: 5415 f8bd 5aa8 e93d ddf7 323d 0835 c13d
00000160: d282 f43d 9b07 a63d 3f90 0a3b 8be1 8c3a
00000170: 5df7 7c3c fe9d a93d 090c d83c 0c3c 8c3d
00000180: 3247 5cbd 6f26 6ebc 2d0a 9cbd 5057 d03d
00000190: 84ce b03d 7c39 e53d 1dc2 493d 48c3 edbd
000001a0: 6b3e f83b 11c3 c0bd a16e b93b 7f61 a3bd
000001b0: e6ea 17bd 4088 b8bd cf9f 413d 1ebe e8bd
000001c0: ae96 4ebd d8b1 d03b e484 a0bd 0238 53bd
000001d0: 46dc 56bd 4be9 1dbc e6f4 dcbc 7d16 2b3c
000001e0: 451d df3d a18a 133d 180b 93bd 7baf 843d
000001f0: 3808 be3d ca2f 67bd aef1 9d3d c8d7 db3d
00000200: 8c66 573d 02d3 adbd 9a01 89bd b8b9 d0bc
00000210: 30fb e4bd ccac 13bd 06a5 8f3d f618 973d
00000220: 562e bebd a4e1 a23d 26a9 b43d 5496 4c3d
00000230: cce8 083d 8a70 e4bd e2e8 ef3d 1c55 ddbd
00000240: e6c8 b83d f011 b0bd 5419 323d a61e 8fbd
00000250: 2062 b3bb 08bb cc3d 6c8c cdbd 78d8 923c
00000260: f22f 8ebd ec68 2abd 7052 fd3d 06ab babd
00000270: 2051 55bc 6876 b7bc ac41 5e3d be06 bebd
00000280: 2c7e 02bd 4012 db3d 48ed 7b3d 1ef2 eb3d
00000290: 5018 4e3d 38b1 84bc 3c80 cf3d d02d 6d3c
000002a0: 2640 f0bd e09a aa3d 74b4 243d 04ba 7ebd
000002b0: 206a 84bb 50b2 7ebc 9ebb fcbd 80b6 c5bc
000002c0: 3c66 d23d f6c9 8c3d f8a3 203d 76b0 d33d
000002d0: 2c19 b0bd 980f 03bd 2881 dc3d 56d7 c03d
000002e0: 188f a13d 4072 30bb e07a 843b d6c5 8ebd
000002f0: 4e9a a63d 28eb 35bd 1640 e3bd b88b df3d
00000300: b7ba e6bb c697 7dbd 8ca6 a2bc 4880 7e3d
00000310: 49a7 7a3d 8aa9 ecbc 5ac5 bb3d 4b25 fbbc
00000320: 5f8a 2b3c 8638 3e3d b22e e53c 460b bdbc
00000330: 40f5 85bd 9029 63bd 5952 9f3d 7324 1dbd
00000340: 6c63 cbbc 5c54 d93d 0287 bc3d 7447 05bd
00000350: d400 eb3d 9e33 153d 6cde c2bd 3895 70bc
00000360: 95c5 fbbd 18a8 d1bc d834 cd3d 0f95 793c
00000370: 1fe5 ccbd f9ec 92bd 5c4f c5bd 8aa2 cc3d
00000380: 90a9 efbc 5084 ddbd e7a5 d33d 4e9b a8bd
00000390: 94f2 0dbc b4df ce38 810e 4f3d b6a0 6fbc
000003a0: 562f c6bb b59a c53d 7949 033d 322b 72bd
000003b0: 6c32 363d 8300 d23d 690d d43c 85f0 9dbd
000003c0: df14 9b3d 2ee2 f3bd 19d4 873d 2af8 c6bd
000003d0: a455 a8bd 3373 083d a2d3 a9bb 163b f8bd
000003e0: 82b1 8a3c 271b c03d ac53 abb9 4442 793c
000003f0: 8ea1 613d 51f2 9abd 54db bd3c c837 0c3c

fc1.bias f4 [32]
0.043847054 -0.007694697 -0.052445322 0.00872319 0.014701066 -0.047836736 -0.05314336 -0.018284755
0.07005263 0.01801987 0.0909139 -0.17536193 -0.16022888 -0.035161283 0.020646527 -0.15269513
0.074737206 0.084348656 0.04506761 0.118636265 0.04365598 0.02590667 -0.060930364 -0.07304821
0.08253319 0.028221315 0.1222663 -0.067719206 0.22730668 0.20326175 -0.053252917 -0.048585545
00000000: f898 333d cc23 fcbb e8d0 56bd b6eb 0e3c
00000010: bddc 703c 74f0 43bd daac 59bd e9c9 95bc
00000020: c177 8f3d 689e 933c 1131 ba3d 1492 33be
00000030: 0a13 24be 4705 10bd e822 a93c 1d5c 1cbe
00000040: d20f 993d fdbe ac3d d098 383d 92f7 f23d
00000050: 9dd0 323d 3a3a d43c 1e92 79bd 4d9a 95bd
00000060: 2907 a93d 6330 e73c c166 fa3d 5eb0 8abd
00000070: 15c3 683e d923 503e bb1f 5abd a301 47bd

fc_mu.weight f4 [16, 32]
-0.15441166 0.08633388 0.1288923 0.1653476 -0.15224269 0.12679377 -0.09676904 0.07945187
-0.08120224 0.14979124 0.08690284 0.10360367 -0.121518575 -0.07264953 0.09219509 0.07164001
0.10839992 -0.029403748 -0.1486863 -0.036113463 -0.009683382 -0.06635941 0.16583352 -0.096851915
-0.09431438 -0.04604109 0.07126842 0.062406257 0.08954195 0.026002517 0.07516055 -0.046575885
0.034107644 -0.11954265 -0.13569625 0.011519209 0.117248416 0.018560397 -0.08232669 -0.060070813
-0.039703023 -0.0034844633 0.10350246 -0.037060097 0.13453858 -0.020958347 0.051509306 0.08010369
-0.11880555 -0.14335172 0.14005671 0.019280877 0.06720973 0.05271826 -0.056054838 0.14062004
0.089170314 -0.19307064 -0.050612427 0.11336259 -0.120752536 -0.018637935 0.063503146 0.108921796
-0.026550872 -0.11663661 -0.07945368 -0.034730267 0.1439394 0.11741614 -0.11311543 -0.029938854
0.009947792 0.11189614 -0.059317898 -0.15808411 -0.09811291 0.059540693 -0.030092638 0.03249838
-0.014936992 0.21122663 0.057596374 -0.12076311 0.02250955 0.011358742 -0.061793495 -0.05112087
0.12211217 0.08139489 -0.17372236 0.058421984 0.04389327 -0.08617636 -0.07142005 -0.11229443
-0.119392365 -0.08263091 0.018007515 0.0070006107 0.0024466133 0.09746699 0.10602425 -0.042326633
0.16165455 0.024641993 0.07168574 0.09500544 -0.033151112 -0.09667668 -0.073735766 -0.07643401
-0.08648077 0.012393251 -0.08742119 0.09862185 0.033948544 -0.002679743 0.0660079 -0.12555426
-0.04708681 -0.1899512 -0.026626928 -0.053132173 0.10044652 -0.09326609 -0.056513928 0.25398535
0.12574734 -0.12505066 -0.03838619 -0.08382081 0.015469224 -0.017818676 0.017322797 -0.123910554
-0.042625133 -0.009172096 0.10682947 -0.10996115 -0.11022616 0.03829623 -0.14035176 0.03486648
-0.050380815 -0.18093622 -0.05292558 -0.0910205 -0.105711 0.14144558 -0.00090521196 0.12215971
0.012797505 0.060888935 -0.13841075 -0.19657183 0.021530896 0.06754225 -0.07577842 0.021277068
0.008496878 -0.15658553 0.111288264 -0.105449215 -0.06300319 -0.077350214 0.05226282 -0.079226755
-0.15838571 0.04729105 -0.00072662404 -0.19901876 0.09894833 0.12046721 -0.034550723 0.022003777
-0.039876565 -0.05758017 -0.13303748 -0.1377348 -0.18151014 0.08128259 0.07350547 0.13411622
0.02321914 0.20737824 0.050229453 0.1618508 0.030762268 -0.13614187 -0.13631529 -0.0052497
0.09934855 -0.14581463 -0.13694485 0.07738197 -0.1044846 0.028988328 -0.09621853 0.14104228
-0.06994661 -0.013706811 -0.037036423 -0.080360584 0.1475784 0.06966543 -0.016056411 0.09688453
-0.14868474 -0.04556384 0.1631444 -0.011873294 -0.024365302 0.1526425 -0.07250983 -0.07696283
-0.095676534 -0.033287402 -0.17812574 0.080627196 -0.037295323 -0.133329 -0.057196714 0.003793754
0.08988843 -0.017521534 -0.12233043 -0.059670232 0.045322806 -0.15744224 -0.15343173 -0.009737277
-0.013028851 0.24012299 -0.02183477 -0.11813885 0.10683096 -0.14606075 0.08825118 -0.13985366
0.03791027 0.14328308 0.025415935 0.12563731 0.1344484 -0.17601588 -0.111558676 -0.056617506
0.12348446 0.020662988 -0.11754077 -0.012548792 -0.16293761 0.10885994 0.06110449 0.05774726
00000000: 171e 1ebe d1cf b03d 58fc 033e e250 293e
00000010: 82e5 1bbe 3ad6 013e d92e c6bd a9b7 a23d
00000020: 5c4d a6bd e062 193e 1efa b13d 292e d43d
00000030: bbde f8bd 47c9 94bd c8d0 bc3d ffb7 923d
00000040: c700 de3d 21e0 f0bc 3941 18be b6eb 13bd
00000050: 0ca7 1ebc 71e7 87bd 43d0 293e 4c5a c6bd
00000060: e627 c1bd 9595 3cbd 2df5 913d b49d 7f3d
00000070: c561 b73d 3b03 d53c c6ed 993d 5bc6 3ebd
00000080: 75b4 0b3d c7d2 f4bd f5f3 0abe 10bb 3c3c
00000090: f01f f03d f90b 983c e59a a8bd d00c 76bd
000000a0: a39f 22bd 985b 64bb 19f9 d33d 54cc 17bd
000000b0: 7bc4 093e d7b0 abbc 6cfb 523d 670d a43d
000000c0: 5350 f3bd cbca 12be 076b 0f3e eef2 9d3c
000000d0: 41a5 893d 1aef 573d c299 65bd b3fe 0f3e
000000e0: ed9e b63d 4fb4 45be fa4e 4fbd a52a e83d
000000f0: 1b4d f7bd 95ae 98bc f00d 823d 6412 df3d
00000100: 3781 d9bc 2ddf eebd 9cb8 a2bd 5341 0ebd
00000110: da64 133e e077 f03d 10a9 e7bd 5442 f5bc
00000120: 10fc 223c ce29 e53d 53f7 72bd cde0 21be
00000130: 6cef c8bd f1e0 733d d684 f6bc 051d 053d
00000140: 49ba 74bc cb4b 583e 2dea 6b3d a652 f7bd
00000150: f365 b83c 041a 3a3c 2d1b 7dbd 1e64 51bd
00000160: f215 fa3d 5db2 a63d 46e4 31be e44b 6f3d
00000170: 6ec9 333d 3b7d b0bd ad44 92bd 9ffa e5bd
00000180: fc83 f4bd 653a a9bd 7f84 933c 6165 e53b
00000190: 5c57 203b c69c c73d 3e23 d93d b15e 2dbd
000001a0: c588 253e 01de c93c f9cf 923d 3692 c23d
000001b0: 76c9 07bd 6cfe c5bd c702 97bd 6f89 9cbd
000001c0: d41c b1bd 100d 4b3c e209 b3bd 41fa c93d
000001d0: a10d 0b3d a19e 2fbb 262f 873d 4c91 00be
000001e0: 19de 40bd 9182 42be b720 dabc 1fa1 59bd
000001f0: e8b6 cd3d 4b02 bfbd 267b 67bd 5e0a 823e
00000200: e9c3 003e 480d 00be d63a 1dbd 3faa abbd
00000210: a172 7d3c 79f8 91bc 8ae8 8d3c d1c4 fdbd
00000220: b197 2ebd 8f46 16bc 69c9 da3d 5033 e1bd
00000230: 41be e1bd 82dc 1c3d 5fb8 0fbe 27d0 0e3d
00000240: 1d5c 4ebd 5847 39be 7ec8 58bd f568 babd
00000250: 027f d8bd 1cd7 103e bf4b 6dba df2e fa3d
00000260: a0ac 513c ad66 793d 8cbb 0dbe 204a 49be
00000270: 9061 b03c 9753 8a3d b731 9bbd 3f4d ae3c
00000280: 7d36 0b3c f557 20be 1aeb e33d c2f5 d7bd
00000290: d107 81bd ca69 9ebd 8a11 563d a341 a2bd
000002a0: dd2f 22be 43b4 413d ea7a 3eba 93cb 4bbe
000002b0: 6ca5 ca3d 83b7 f63d 0f85 0dbd 4441 b43c
000002c0: 9c55 23bd 2fd9 6bbd fa3a 08be 5a0a 0dbe
000002d0: cbdd 39be 7d77 a63d 098a 963d c355 093e
000002e0: 1136 be3c f65a 543e 66bd 4d3d 37bc 253e
000002f0: 2701 fc3c c668 0bbe 3c96 0bbe ad05 acbb
00000300: 4177 cb3d 6e50 15be 453b 0cbe 707a 9e3d
00000310: 06fc d5bd ee78 ed3c 380e c5bd 636d 103e
00000320: 2b40 8fbd 8892 60bc 81b3 17bd 1794 a4bd
00000330: cb1e 173e c0ac 8e3d bc88 83bc 656b c63d
00000340: d040 18be 26a1 3abd 530f 273e 3488 42bc
00000350: be99 c7bc 514e 1c3e 0980 94bd b09e 9dbd
00000360: 0ff2 c3bd 5f58 08bd 9866 36be df1f a53d
00000370: fbc2 18bd 6687 08be 1a47 6abd a1a0 783b
00000380: 6d17 b83d 5289 8fbc 6088 fabd c668 74bd
00000390: 68a4 393d 8a38 21be 351d 1dbe 1a89 1fbc
000003a0: f676 55bc cde2 753e d5de b2bc c8f2 f1bd
000003b0: 31ca da3d f390 15be 09bd b43d cc35 0fbe
000003c0: cd47 1b3d cdb8 123e 1435 d03c 11a7 003e
000003d0: d7ac 093e 823d 34be e078 e4bd c2e7 67bd
000003e0: 6ce5 fc3d 6d45 a93c 37b9 f0bd 7399 4dbc
000003f0: 1ed9 26be f6f1 de3d b448 7a3d 6488 6c3d

fc_mu.bias f4 [16]
0.0200402 -0.0285634 -0.061074466 0.17947717 -0.053943686 0.08738467 0.041810613 0.21833658
0.039941154 0.08952818 0.19285125 0.050227452 -0.11811123 -0.17506658 0.17856863 -0.036577605
00000000: 582b a43c cbfd e9bc 3829 7abd ddc8 373e
00000010: 0ef4 5cbd bcf6 b23d 9b41 2b3d a093 5f3e
00000020: 5699 233d 8d5a b73d cc7a 453e 4dbb 4d3d
00000030: 4de4 f1bd a744 33be b2da 363e 66d2 15bd

fc_logvar.weight f4 [16, 32]
0.055607874 0.10512316 0.10548949 0.02826534 0.017597456 0.03011424 0.03359489 0.014986402
-0.09621894 -0.026504196 -0.29015833 -0.065324366 -0.11947867 -0.0985489 -0.056011602 0.04854928
0.09966601 -0.05954623 -0.04182881 -0.035774518 -0.12219638 0.08957255 0.22140221 -0.14771052
0.009833732 -0.004629092 -0.0018065755 -0.11539735 0.07125005 -0.09306041 -0.051718704 -0.076705486
0.05903445 -0.12433798 0.060675718 -0.033879865 -0.14420117 0.04352488 0.10755149 -0.06527614
-0.0826975 -0.057512075 -0.14173983 -0.09896017 -0.05654006 -0.14154889 -0.12182468 -0.0035307435
0.14467528 -0.09515319 -0.07679078 0.04428131 -0.07075947 -0.054532472 0.19954643 -0.12283905
0.01485964 0.025620151 0.11492188 -0.031726018 0.043703355 -0.13440554 -0.08669185 0.019847753
0.09795626 0.071059294 -0.053306766 -0.018305438 0.05152634 0.05672698 0.07668035 0.10595333
-0.11948203 -0.06803554 -0.113074034 0.019135978 0.045406964 -0.07777512 -0.08218132 -0.021105371
-0.1171663 0.056223474 -0.021204054 0.1611239 -0.1037496 -0.016781414 0.2626729 -0.01438232
0.16954847 -0.0141459 -0.08609516 -0.040492464 -0.028203834 -0.13291544 0.09282483 -0.059430998
-0.028948106 0.075128905 0.17292626 0.028944487 -0.1321218 -0.029005967 0.090693265 -0.022123223
0.009461625 0.009925727 -0.16431183 -0.08564986 -0.062758595 -0.05469773 0.039481606 0.08110847
-0.020329088 -0.068186276 -0.02550015 -0.008513221 0.027328664 -0.015556536 0.30273512 0.057169065
-0.046994373 -0.0673055 -0.09068856 -0.026877373 -0.029568415 -0.08470332 -0.06436938 0.026587304
-0.038371127 0.09341644 0.10455299 0.09267765 -0.02570637 0.17010152 -0.03795359 0.10644994
-0.06798663 -0.07186264 -0.070075385 0.013770873 0.039601963 -0.1506792 -0.12851788 0.14205748
-0.024314193 0.06581164 0.11777465 -0.12089353 -0.092970215 -0.047519002 0.12700036 0.019279229
0.11349781 -0.005870017 -0.14913689 0.12467809 -0.041319653 0.05392945 -0.101840526 0.07777867
-0.010507701 0.023119891 0.15114199 0.050816428 0.017043922 -0.09003905 0.04689455 -0.05696002
-0.09084406 -0.0034242196 -0.12757471 -0.085931726 -0.12866636 0.10581416 0.12083641 0.14634877
-0.0063085393 0.058015227 0.0031280762 0.13349861 -0.036556363 -0.03918088 0.1793873 0.058308847
0.12050465 -0.04227695 -0.118752904 -0.030760383 -0.013449612 -0.060031056 -0.13623193 -0.07416432
-0.06824663 0.07943128 -0.11348153 -0.07689979 0.013621335 -0.11663135 0.033758458 -0.14706305
-0.19626653 -0.044426296 -0.20690109 -0.055337053 -0.08519443 0.10935412 -0.017044038 0.18727738
0.12290012 0.007384762 0.18722759 -0.04266085 -0.06598831 -0.11281014 0.15031587 0.101348676
0.13857993 0.038271207 0.065305404 0.14578348 -0.10692192 0.06649311 -0.120315775 0.089034736
-0.18153398 -0.126158 0.0392424 -0.054402273 -0.26793563 -0.14225896 0.12684256 0.012112209
-0.078148946 0.042473443 -0.21586567 -0.049922433 -0.14299554 0.073385425 -0.028964473 0.1311245
0.100244604 -0.09909647 -0.07027983 0.07339395 -0.07067178 -0.07251245 0.22591548 0.024120584
0.15692465 0.0098332465 -0.1520039 -0.14258604 0.047729153 -0.048891366 0.037668057 0.105863646
00000000: 15c5 633d d04a d73d e00a d83d b78c e73c
00000010: 8a28 903c 23b2 f63c cc9a 093d 8789 753c
00000020: 700e c5bd 541f d9bc a28f 94be c8c8 85bd
00000030: 3cb1 f4bd 01d4 c9bd 6c6c 65bd 9cdb 463d
00000040: b11d cc3d bfe6 73bd b054 2bbd 4d88 12bd
00000050: 1842 fabd d071 b73d 43b7 623e 6d41 17be
00000060: a91d 213c a3af 97bb 9dca ecba 7255 ecbd
00000070: 8ceb 913d 7596 bebd fed6 53bd c417 9dbd
00000080: 1cce 713d e9a4 febd 1a87 783d 9dc5 0abd
00000090: 79a9 13be 2547 323d f543 dc3d 7faf 85bd
000000a0: 4f5d a9bd c891 6bbd 3f24 11be a1ab cabd
000000b0: 8d96 67bd 31f2 10be 387f f9bd 0c64 67bb
000000c0: c225 143e addf c2bd 7c44 9dbd 5260 353d
000000d0: 57ea 90bd 715d 5fbd e655 4c3e 0a93 fbbd
000000e0: d975 733c 5ae1 d13c 2a5c eb3d 24f3 01bd
000000f0: 4a02 333d 9ba1 09be 7f8b b1bd c197 a23c
00000100: 4b9d c83d 8987 913d 3258 5abd 49f5 95bc
00000110: 490d 533d 8d5a 683d 960a 9d3d 0ffe d83d
00000120: ffb2 f4bd 3856 8bbd 5c93 e7bd 0ec3 9c3c
00000130: a7fc 393d 9048 9fbd ae4e a8bd 2ce5 acbc
00000140: e3f4 efbd 964a 663d 20b4 adbc aafd 243e
00000150: ac7a d4bd 2d79 89bc 107d 863e d3a3 6bbc
00000160: 1d9e 2d3e 34c4 67bc a952 b0bd 6ddb 25bd
00000170: ba0b e7bc fc1a 08be f21a be3d eb6d 73bd
00000180: 9424 edbc 2fdd 993d 9513 313e fd1c ed3c
00000190: f04a 07be ec9d edbc 64bd b93d c33b b5bc
000001a0: ee04 1b3c 849f 223c 5c41 28be 3269 afbd
000001b0: 9487 80bd ba0a 60bd 77b7 213d 331c a63d
000001c0: 3089 a6bc 3fa5 8bbd b1e5 d0bc 097b 0bbc
000001d0: 5de0 df3c d7e0 7ebc 1900 9b3e 1c2a 6a3d
000001e0: 2c7d 40bd 77d7 89bd ecba b9bd f02d dcbc
000001f0: 7639 f2bc ef78 adbd 18d4 83bd 9ecd d93c
00000200: 0b2b 1dbd 1e51 bf3d e11f d63d c8cd bd3d
00000210: 2a96 d2bc 182f 2e3e 3975 1bbd 6d02 da3d
00000220: 933c 8bbd b82c 93bd af83 8fbd 3a9f 613c
00000230: ab35 223d a64b 1abe 319a 03be 8477 113e
00000240: 8f2e c7bc 41c8 863d d633 f13d 0797 f7bd
00000250: 2b67 bebd 49a3 42bd 620c 023e 79ef 9d3c
00000260: 8a71 e83d 4659 c0bb 57b7 18be 3a57 ff3d
00000270: cc3e 29bd 21e5 5c3d c491 d0bd 6c4a 9f3d
00000280: 7e28 2cbc ed65 bd3c f7c4 1a3e e324 503d
00000290: b29f 8b3c 6566 b8bd 8014 403d e94e 69bd
000002a0: 730c babd df68 60bb f2a2 02be f9fc afbd
000002b0: 1dc1 03be 18b5 d83d 1479 f73d 74dc 153e
000002c0: ddb7 cebb 60a1 6d3d 6900 4d3b dcb3 083e
000002d0: 20bc 15bd 217c 20bd 4eb1 373e 42d5 6e3d
000002e0: 24cb f63d 982a 2dbd b934 f3bd 33fd fbbc
000002f0: c35b 5cbc 20e3 75bd 6280 0bbe 77e3 97bd
00000300: e4c4 8bbd deac a23d 0169 e8bd a37d 9dbd
00000310: 052c 5f3c 6bdc eebd 4f46 0a3d b297 16be
00000320: 18fa 48be 59f8 35bd e1dd 53be 1ba9 62bd
00000330: 6b7a aebd 0ef5 df3d f09f 8bbc a4c5 3f3e
00000340: 0fb3 fb3d e0fb f13b 97b8 3f3e 25bd 2ebd
00000350: e124 87bd 0109 e7bd 67ec 193e e58f cf3d
00000360: e6e7 0d3e 45c2 1c3d d7be 853d 4448 153e
00000370: e1f9 dabd 8a2d 883d 1e68 f6bd d857 b63d
00000380: 0be4 39be 902f 01be a4bc 203d ebd4 5ebd
00000390: dc2e 89be 55ac 11be 04e3 013e 4972 463c
000003a0: 8e0c a0bd a2f8 2d3d e40b 5dbe 777b 4cbd
000003b0: 6c6d 12be 194b 963d e746 edbc 8045 063e
000003c0: 0b4d cd3d 17f3 cabd dfee 8fbd 914f 963d
000003d0: 5ebc 90bd 6881 94bd 6356 673e 8898 c53c
000003e0: dbb0 203e a01b 213c e9a6 1bbe 1302 12be
000003f0: a57f 433d 5042 48bd d249 1a3d 0acf d83d

fc_logvar.bias f4 [16]
-0.4389563 -0.46772996 -0.5229674 -0.3590203 -0.25405702 -0.35897002 -0.37899595 -0.26738858
-0.22634499 -0.3010017 -0.44865155 -0.48438174 -0.5073238 -0.30492514 -0.37879303 -0.35124603
00000000: e1be e0be 4d7a efbe 31e1 05bf 82d1 b7be
00000010: c313 82be ebca b7be c20b c2be 28e7 88be
00000020: fbc6 67be e51c 9abe a8b5 e5be e200 f8be
00000030: f9df 01bf 261f 9cbe 29f1 c1be 85d6 b3be

fc2.weight f4 [32, 16]
-0.2713576 0.25675783 -0.78068185 0.11993476 -0.12983727 -0.7120706 -0.46803424 -0.00018092709
-0.42820126 -0.37934178 -0.41303408 -0.4446623 -0.038388457 0.28987402 -0.2082789 -0.5572633
-0.5033413 0.4866912 -0.32325003 0.027510583 -0.12373577 -0.01898144 0.08954701 0.47738948
0.0985005 -0.25595212 -0.13992384 0.47510302 0.2268036 0.654564 -0.65391326 -0.81994355
-0.5080398 0.662391 -0.530954 0.2836157 -0.45203933 -0.14632717 0.044776607 -0.6182941
-0.06915601 0.28626615 -0.4316937 0.5430884 0.610641 0.4938566 -0.39131203 0.3199183
0.033609413 0.0026955104 0.044638503 -0.30442575 -0.5576621 0.017528653 0.50306994 -0.1134875
-0.008185237 -0.6385602 -0.52714 -0.13832135 0.06018616 0.35843238 -0.5887438 -0.55577374
-0.08936033 0.10022772 -0.25523853 -0.048230972 -0.17413947 -0.315833 0.18247263 -0.54242134
0.14564751 -0.03936833 -0.1315297 -0.41950178 0.07855786 0.0887635 -0.36171255 -0.63507557
-0.26753747 0.46845686 -0.30678532 -0.26149216 -0.1903802 -0.17601153 -0.034029327 0.110085994
0.23941527 -0.2539648 -0.37706563 0.1950718 -0.41948918 0.32026836 -0.6560548 -0.66572237
-0.3541978 0.2393827 -0.3072748 -0.2819197 -0.5368012 -0.25146368 0.005413182 -0.49322638
0.21475841 -0.33926415 -0.26413167 -0.10264852 0.099390544 0.506948 -0.14807199 -0.8758023
-0.33507735 0.4308293 -0.5060385 -0.25427914 -0.28249863 -0.16437055 0.2602742 0.0043137544
-0.40261436 -0.103135504 -0.48080763 -0.22105813 -0.12923832 0.38789922 -0.21888608 0.22653528
-0.4153379 0.48523524 -0.54527164 -0.4169089 -0.22112976 -0.21299472 0.39888486 0.0010575836
0.04837748 -0.055419028 -0.70447475 -0.19417587 -0.08131175 0.49012163 -0.5434484 0.053702146
-0.18426901 0.16444181 -0.68660855 -0.25623798 -0.16609442 -0.13024156 0.34319296 -0.92585063
-0.05390867 0.3047661 -0.49180496 -0.55841833 0.15843785 0.28953618 0.03383776 0.009231026
-0.4495441 0.40586978 -0.3941698 -0.039429218 -0.097754195 -0.4204113 0.0141584575 -0.28665653
-0.21011062 0.36454767 -0.10746401 -0.3134155 -0.36841944 0.40106028 -0.100464866 -0.19247611
-0.57277787 0.55817825 -0.56466836 1.0077429 -0.65961725 -0.35895383 0.5742057 -0.38798353
0.12060034 0.09248957 -0.1557561 0.623157 0.7668579 0.09680716 -0.52679586 0.7514145
-0.22560826 0.04071273 -0.377204 -0.3527215 -0.34348384 -0.4595574 0.37331477 -0.39096043
-0.17065684 -0.06634568 -0.22367714 -0.039683618 -0.20442276 0.61174643 -0.26510668 -0.46555275
-0.38392344 0.1801018 -0.4913294 -0.19049674 -0.57298267 0.02559807 0.33422664 -0.23412202
-0.040791895 0.016843598 -0.37482136 -0.43541688 -0.13919313 0.45289004 -0.5891396 -0.82865715
-0.24378623 0.23309208 -0.32739756 -0.3084754 -0.30867383 -0.0813668 0.19161125 -0.4207198
0.13265727 0.085138015 -0.22519915 0.11614319 -0.43484235 0.643826 -0.47860143 -0.43451458
-0.49204743 -0.0102984635 -0.10373547 -0.17665298 0.10490684 -0.3353902 0.040818274 -0.5107306
0.34830227 -0.5402769 -0.55823773 0.048900753 -0.92708296 0.09734508 -0.62892485 0.038409844
00000000: 62ef 8abe c375 833e c4da 47bf 5ba0 f53d
00000010: 10f4 04be 424a 36bf 2fa2 efbe 3fb7 3db9
00000020: 323d dbbe 1639 c2be 3479 d3be c7aa e3be
00000030: 373d 1dbd 5e6a 943e 1047 55be cfa8 0ebf
00000040: fada 00bf 972f f93e 0781 a5be e05d e13c
00000050: 2e69 fdbd f77e 9bbc 6c64 b73d 656c f43e
00000060: a1ba c93d 280c 83be 3248 0fbe b440 f33e
00000070: 343f 683e 8291 273f dc66 27bf d2e7 51bf
00000080: e50e 02bf 7592 293f 9aec 07bf 1436 913e
00000090: b371 e7be cad6 15be ad67 373d 8648 1ebf
000000a0: aba1 8dbd 7a91 923e f506 ddbe d707 0b3f
000000b0: f852 1c3f c6da fc3e 0d5a c8be 55cc a33e
000000c0: 06aa 093d 29a7 303b ddd6 363d b1dd 9bbe
000000d0: f2c2 0ebf 4098 8f3c 31c9 003f 226c e8bd
000000e0: 5f1b 06bc ae78 23bf a6f2 06bf 1da4 0dbe
000000f0: c385 763d 7384 b73e eab7 16bf 3047 0ebf
00000100: 8c02 b7bd 3144 cd3d a0ae 82be d78d 45bd
00000110: 9e51 32be ddb4 a1be 1bda 3a3e 20dc 0abf
00000120: 9f24 153e b040 21bd b9af 06be f0c8 d6be
00000130: f1e2 a03d a3c9 b53d 6332 b9be 5094 22bf
00000140: acfa 88be 94d9 ef3e f712 9dbe 4de2 85be
00000150: 07f3 42be 5e3c 34be 5662 0bbd c474 e13d
00000160: 4729 753e ad07 82be bf0e c1be e7c0 473e
00000170: 49c7 d6be 37fa a33e 35f3 27bf c86c 2abf
00000180: 6a59 b5be bd20 753e 1f53 9dbe c757 90be
00000190: ce6b 09bf d9bf 80be 1061 b13b 2b88 fcbe
000001a0: a1e9 5b3e 08b4 adbe 443c 87be 6339 d2bd
000001b0: 458d cb3d 58c7 013f 2fa0 17be 9434 60bf
000001c0: 428f abbe a895 dc3e bd8b 01bf e030 82be
000001d0: a9a3 90be c150 28be a942 853e 655a 8d3b
000001e0: 7823 cebe b538 d3bd 6b2c f6be 105d 62be
000001f0: 0d57 04be ba9a c63e ac23 60be ddf8 673e
00000200: 2ba7 d4be c170 f83e ec96 0bbf 1575 d5be
00000210: d76f 62be 4a1b 5abe a33a cc3e 9e9e 8a3a
00000220: 7727 463d 10ff 62bd 7558 34bf 0ad6 46be
00000230: c686 a6bd 39f1 fa3e 6f1f 0bbf c8f6 5b3d
00000240: 04b1 3cbe 6f63 283e 94c5 2fbf a031 83be
00000250: a814 2abe 0b5e 05be fdb6 af3e 8c04 6dbf
00000260: 56cf 5cbd 4d0a 9c3e dccd fbbe 81f4 0ebf
00000270: 883d 223e 163e 943e 7799 0a3d bb3d 173c
00000280: a52a e6be 2ace cf3e a0d0 c9be 8880 21bd
00000290: 5a33 c8bd 2640 d7be e0f8 673c a5c4 92be
000002a0: 3d27 57be fea5 ba3e 1716 dcbd ff77 a0be
000002b0: 79a1 bcbe c657 cd3e 86c0 cdbd 7518 45be
000002c0: 92a1 12bf c5e4 0e3f 1b8e 10bf b8fd 803f
000002d0: addc 28bf ccc8 b7be 25ff 123f c7a5 c6be
000002e0: 50fd f63d 2c6b bd3d 877e 1fbe 3887 1f3f
000002f0: cd50 443f d542 c63d 18dc 06bf b35c 403f
00000300: da05 67be 64c2 263d e220 c1be ea97 b4be
00000310: 1ddd afbe 1c4b ebbe 1d23 bf3e f72b c8be
00000320: abc0 2ebe 3ee0 87bd 9f0b 65be 4a8b 22bd
00000330: 3354 51be 6a9b 1c3f 10bc 87be ee5c eebe
00000340: 9d91 c4be 9b6c 383e 878f fbbe 9411 43be
00000350: feae 12bf 0bb3 d13c c11f ab3e afbd 6fbe
00000360: 6715 27bd 96fb 893c 96e8 bfbe f6ee debe
00000370: a588 0ebe 34e1 e73e dad1 16bf e022 54bf
00000380: 19a3 79be b1af 6e3e a7a0 a7be 7df0 9dbe
00000390: 7f0a 9ebe a3a3 a6bd bd35 443e 9668 d7be
000003a0: 4fd7 073e d75c ae3d 9b9a 66be 7bdc ed3d
000003b0: a8a3 debe c8d1 243f 3f0b f5be b278 debe
000003c0: a4ed fbbe e3ba 28bc 4373 d4bd 85e4 34be
000003d0: 66d9 d63d 44b8 abbe 1031 273d 3ebf 02bf
000003e0: ad54 b23e 964f 0abf abe8 0ebf 284c 483d
000003f0: 4f55 6dbf db5c c73d 3801 21bf a453 1d3d

fc2.bias f4 [32]
0.30266318 0.49103048 0.39531824 0.20580637 0.5372644 0.44951805 0.26385313 0.39447895
0.34763327 0.6118836 0.17019688 0.48192245 0.64417285 0.61651736 0.48529226 0.4112519
0.73307514 0.6582715 0.54214984 0.3864174 0.4457371 0.3888687 0.40315032 0.18415023
0.3135622 0.43966252 0.2872463 0.5926548 0.48634836 0.6902338 0.50689954 0.64301443
00000000: abf6 9a3e 5968 fb3e 2767 ca3e e8be 523e
00000010: 298a 093f 3b27 e63e c217 873e 25f9 c93e
00000020: fdfc b13e 67a4 1c3f 1748 2e3e 8abe f63e
00000030: 83e8 243f 15d4 1d3f 3a78 f83e 9c8f d23e
00000040: d0aa 3b3f 7b84 283f 55ca 0a3f 80d8 c53e
00000050: a737 e43e cc19 c73e b869 ce3e e191 3c3e
00000060: 3a8b a03e 721b e13e f211 933e 3ab8 173f
00000070: a702 f93e 2ab3 303f 2bc4 013f 989c 243f

fc3.weight f4 [64, 32]
0.10527501 -0.75279653 0.19311084 -0.18064184 0.4189183 -0.39564487 -0.15959895 0.07881562
-0.013592647 0.82117087 0.41718706 0.43814176 -0.0024324518 0.21388036 -0.0829287 0.16920392
-0.48357514 0.2036179 0.5821548 0.4423369 0.39000204 0.29504728 0.47502908 0.13895369
0.40706474 -0.7507638 -0.18070078 0.18683602 0.22689384 0.25124088 -0.1733553 0.13111652
0.09619851 -0.6719577 0.37308836 -0.2645735 0.22042295 -0.27336988 -0.030298632 0.09487443
-0.11706585 0.7030268 0.0351453 0.29425377 0.06034997 -0.024630569 -0.020045422 0.12171211
-0.34249246 0.18396349 0.38696238 0.64580077 0.5083218 0.18375392 0.20763211 0.17041771
0.3772533 -0.4850475 -0.30253658 0.45347714 0.38704535 0.28881398 -0.08359691 0.40955198
0.056701805 -0.65911156 0.37851125 -0.2698132 0.03304872 -0.35622737 0.24977033 0.16283394
0.010347185 0.69504 0.098018594 0.1939715 -0.059206184 -0.061510786 0.18846925 0.2022487
-0.34204736 0.0355959 -0.09019718 0.7692042 0.18777604 0.0016888198 0.19004402 -0.20773593
0.2709534 0.15694885 -0.11644857 0.4227407 0.5005253 0.417529 0.077484466 0.19173609
-0.27963436 -0.32643023 0.3716954 -0.12792827 -0.1169957 -0.350306 0.2555788 -0.11699443
0.07844278 0.35183355 0.26536673 0.30231097 0.24988738 -0.03247688 0.085836105 0.0010703608
-0.53942066 0.28055146 -0.27264163 0.83296704 0.26772436 0.16078962 0.17856438 -0.20433965
0.06382792 0.47519144 -0.16549061 0.43450007 0.5342043 0.23711684 -0.22855549 0.17339447
-0.073856555 -0.14192116 0.4123693 -0.46264315 -0.12054749 -0.025889043 0.09588132 0.08255772
-0.04352288 0.30990562 0.077522725 0.29487902 0.0044084773 -0.22557648 0.22715814 -0.008161829
-0.5291931 0.34444043 -0.3637866 0.5688497 0.34659868 0.10517201 0.23770995 -0.34049535
-0.018660074 0.6072915 -0.02763362 0.45883012 0.42918742 0.29750386 -0.06550292 0.034884803
-0.19998148 0.14562963 0.58296376 -0.59000987 -0.24052058 -0.07734104 -0.14644735 0.128161
0.0026906456 0.22767115 0.12628718 0.34308347 0.15782543 -0.0071005053 0.0049916613 0.06556687
-0.43305546 0.43927076 -0.11949885 0.31488165 0.40531805 -0.029062683 0.037795395 -0.2958797
-0.24190597 0.43346694 -0.1681104 0.46274227 0.3020434 0.26436 -0.26593313 0.1898416
0.020011298 0.084684595 0.37033138 -0.3434096 -0.12784299 -0.015369728 -0.1655753 0.22518325
-0.0053342413 0.15498862 0.28542227 0.5333374 -0.020304853 -0.09929884 0.0063281977 -0.14690825
-0.47358873 0.4138092 -0.13029833 0.02994176 0.29587802 0.22551826 -0.0316893 -0.37094015
-0.15399508 0.553837 -0.30361754 0.46284372 0.19799173 0.42387617 -0.17843749 -0.028788026
0.0046384474 0.010027328 0.56145 -0.48232988 -0.41374978 -0.10756534 -0.12760416 0.23854406
0.23117171 0.20981677 0.16629381 0.37431267 -0.027338287 0.014675606 0.011627723 -0.07713752
-0.5393568 0.25059825 0.04704591 -0.27310067 0.17739816 0.08417666 0.18838063 -0.09072861
-0.26302746 0.54548186 -0.14573607 0.320425 0.3423381 0.3245596 -0.030574476 -0.08051309
00000000: 6d9a d73d 46b7 40bf d9be 453e 2dfa 38be
00000010: 767c d63e f791 cabe e86d 23be 156a a13d
00000020: b2b3 5ebc 4138 523f 8b99 d53e 1e54 e03e
00000030: c569 1fbb 7403 5b3e 86d6 a9bd cb43 2d3e
00000040: 2997 f7be 3681 503e 1908 153f fb79 e23e
00000050: 59ae c73e 7010 973e 0337 f33e e049 0e3e
00000060: ca6a d03e 0e32 40bf a009 39be f151 3f3e
00000070: dc56 683e a5a2 803e 0d84 31be 6943 063e
00000080: b903 c53d 6b05 2cbf 7005 bf3e 2e76 87be
00000090: 8eb6 613e 23f7 8bbe d634 f8bc 864d c23d
000000a0: 38c0 efbd 90f9 333f 85f4 0f3d 6ea8 963e
000000b0: 8831 773d 0cc6 c9bc 4c36 a4bc 3344 f93d
000000c0: 2c5b afbe ed60 3c3e ef1f c63e 3353 253f
000000d0: 6121 023f fd29 3c3e 839d 543e fb81 2e3e
000000e0: 5827 c13e 2558 f8be 13e6 9abe 282e e83e
000000f0: cf2a c63e 6ddf 933e db34 abbd ccb0 d13e
00000100: 2740 683d 89bb 28bf 3acc c13e f524 8abe
00000110: 185e 073d 6f63 b6be cbc3 7f3e f1bd 263e
00000120: 3d87 293c 24ee 313f f9bd c83d 77a0 463e
00000130: 2f82 72bd bcf2 7bbd 15fe 403e 491a 4f3e
00000140: d520 afbe 02cd 113d 4db9 b8bd 91ea 443f
00000150: 5d48 403e 645b dd3a e69a 423e bab8 54be
00000160: 67ba 8a3e 33b7 203e 967c eebd 7871 d83e
00000170: 6d22 003f 5cc6 d53e 2db0 9e3d 7756 443e
00000180: 3c2c 8fbe dd21 a7be dc4e be3e a1ff 02be
00000190: 719b efbd 4f5b b3be 39db 823e c79a efbd
000001a0: 9ca6 a03d 8723 b43e 26de 873e 81c8 9a3e
000001b0: 7ae2 7f3e 7a06 05bd d7ca af3d 594b 8c3a
000001c0: 7917 0abf 71a4 8f3e af97 8bbe 543d 553f
000001d0: 2b13 893e 09a6 243e 95d9 363e 6a3e 51be
000001e0: 36b8 823d 4b4c f33e 5f76 29be cb76 de3e
000001f0: 9dc1 083f c2ce 723e 730a 6abe 528e 313e
00000200: 1b42 97bd c853 11be 1222 d33e 90df ecbe
00000210: 9ae1 f6bd 4215 d4bc 6d5d c43d 0614 a93d
00000220: 0c45 32bd f3ab 9e3e 3cc4 9e3d 62fa 963e
00000230: fd74 903b 85fd 66be 259c 683e 31b9 05bc
00000240: 3379 07bf 7f5a b03e 3d42 babe 22a0 113f
00000250: 6275 b13e 6c64 d73d 3d6a 733e 6855 aebe
00000260: 03dd 98bc 7577 1b3f e75f e2bc c8eb ea3e
00000270: 74be db3e 6d52 983e 6526 86bd 5ee3 0e3d
00000280: f2c7 4cbe ef1f 153e 1d3d 153f e30a 17bf
00000290: 074b 76be fb64 9ebd 4bf6 15be a33c 033e
000002a0: 8b55 303b a022 693e 6d51 013e a3a8 af3e
000002b0: fd9c 213e 5bab e8bb 1791 a33b ec47 863d
000002c0: 72b9 ddbe 19e8 e03e d0bb f4bd 2b38 a13e
000002d0: d985 cf3e dd14 eebc 58cf 1a3d 8b7d 97be
000002e0: 33b6 77be 61ef dd3e 2225 2cbe 8eec ec3e
000002f0: 6fa5 9a3e 325a 873e 6328 88be d665 423e
00000300: bcee a33c 1e6f ad3d 139c bd3e 62d3 afbe
00000310: 46e9 02be 50d1 7bbc 928c 29be 7096 663e
00000320: dcca aebb 56b5 1e3e de22 923e cd88 083f
00000330: 5d56 a6bc 315d cbbd c55c cf3b 1e6f 16be
00000340: 397a f2be cdde d33e ed6c 05be 6c48 f53c
00000350: 537d 973e 42ee 663e a4cc 01bd deeb bdbe
00000360: e3b0 1dbe 43c8 0d3f c273 9bbe daf9 ec3e
00000370: 58be 4a3e 4c06 d93e 51b8 36be ded4 ebbc
00000380: 1efe 973b a949 243c 30bb 0f3f f1f3 f6be
00000390: 03d7 d3be 384b dcbd aaaa 02be e544 743e
000003a0: 47b8 6c3e 35da 563e ed48 2a3e e9a5 bf3e
000003b0: 8bf4 dfbc f471 703c 3582 3e3c 47fa 9dbd
000003c0: 4a13 0abf 6a4e 803e 36b3 403d dad3 8bbe
000003d0: dda7 353e d064 ac3d dae6 403e eccf b9bd
000003e0: 89ab 86be b3a4 0b3f d63b 15be bf0e a43e
000003f0: f046 af3e ad2c a63e 5377 fabc 0ce4 a4bd

fc3.bias f4 [64]
0.04846043 0.58544844 0.15078622 0.011574335 0.025821334 0.30601963 0.22652793 0.01975057
0.17438656 0.23514259 -0.12995017 -0.03069418 0.09868458 0.015622798 0.116809495 -0.26226383
-0.10258849 -0.25257754 -0.13590224 -0.25138327 -0.2679631 -0.13477948 -0.20543431 -0.27199903
-0.26600227 -0.1390561 -0.1995863 -0.18566686 -0.14481302 0.027547397 -0.27327 -0.18847454
-0.19395325 0.08099857 0.0695778 -0.16061428 0.04127087 0.05685918 -0.16674022 -0.2097787
-0.3637809 -0.111435354 -0.32277587 -0.27539256 -0.20926604 0.06699973 0.06448167 -0.3873233
-0.018782418 0.050846025 -0.052579813 0.11870882 -0.031056833 -0.19074674 -0.3103525 -0.3444451
-0.47025058 -0.34677687 -0.24807905 -0.19325042 -0.13301772 -0.39881876 -0.45882273 -0.73274153
00000000: 727e 463d f3df 153f b467 1a3e 48a2 3d3c
00000010: 4387 d33c 9bae 9c3e f0f6 673e f3cb a13c
00000020: 6492 323e 38c9 703e a811 05be 5c72 fbbc
00000030: 241b ca3d c4f6 7f3c d139 ef3d 7247 86be
00000040: ea19 d2bd d851 81be f529 0bbe 4fb5 80be
00000050: 7632 89be a203 0abe 5f5d 52be 7543 8bbe
00000060: 7331 88be b964 0ebe 5a60 4cbe 741f 3ebe
00000070: dd49 14be 14ab e13c 0cea 8bbe 78ff 40be
00000080: ae9b 46be 94e2 a53d ce7e 8e3d 1278 24be
00000090: a50b 293d 2ce5 683d f3bd 2abe 3ad0 56be
000000a0: 7d41 babe 3838 e4bd e142 a5be 4100 8dbe
000000b0: d649 56be 2837 893d f70e 843d 3d4f c6be
000000c0: 96dd 99bc ec43 503d ee5d 57bd 9c1d f33d
000000d0: e66a febc 1d53 43be 86e6 9ebe 1c5b b0be
000000e0: afc4 f0be bd8c b1be 6f08 7ebe 70e3 45be
000000f0: cc35 08be f931 ccbe d0ea eabe f394 3bbf
